{"format": "layers-model", "generatedBy": "keras v2.12.0", "convertedBy": "TensorFlow.js Converter v4.22.0", "modelTopology": {"keras_version": "2.12.0", "backend": "tensorflow", "model_config": {"class_name": "Functional", "config": {"name": "model", "trainable": false, "layers": [{"class_name": "InputLayer", "config": {"batch_input_shape": [1, 224, 224, 3], "dtype": "float32", "sparse": false, "ragged": false, "name": "input_1"}, "name": "input_1", "inbound_nodes": []}, {"class_name": "ZeroPadding2D", "config": {"name": "zero_padding2d", "trainable": false, "dtype": "float32", "padding": [[1, 1], [1, 1]], "data_format": "channels_last"}, "name": "zero_padding2d", "inbound_nodes": [[["input_1", 0, 0, {}]]]}, {"class_name": "Conv2D", "config": {"name": "conv2d", "trainable": false, "dtype": "float32", "filters": 16, "kernel_size": [3, 3], "strides": [2, 2], "padding": "valid", "data_format": "channels_last", "dilation_rate": [1, 1], "groups": 1, "activation": "linear", "use_bias": true, "kernel_initializer": {"class_name": "GlorotUniform", "config": {"seed": null}}, "bias_initializer": {"class_name": "Zeros", "config": {}}, "kernel_regularizer": null, "bias_regularizer": null, "activity_regularizer": null, "kernel_constraint": null, "bias_constraint": null}, "name": "conv2d", "inbound_nodes": [[["zero_padding2d", 0, 0, {}]]]}, {"class_name": "TFOpLambda", "config": {"name": "tf.math.multiply", "trainable": false, "dtype": "float32", "function": "math.multiply"}, "name": "tf.math.multiply", "inbound_nodes": [["_CONSTANT_VALUE", -1, 0.1666666716337204, {"y": ["conv2d", 0, 0], "name": null}]]}, {"class_name": "TFOpLambda", "config": {"name": "tf.__operators__.add", "trainable": false, "dtype": "float32", "function": "__operators__.add"}, "name": "tf.__operators__.add", "inbound_nodes": [["tf.math.multiply", 0, 0, {"y": 0.5, "name": null}]]}, {"class_name": "TFOpLambda", "config": {"name": "tf.clip_by_value", "trainable": false, "dtype": "float32", "function": "clip_by_value"}, "name": "tf.clip_by_value", "inbound_nodes": [["tf.__operators__.add", 0, 0, {"clip_value_min": 0, "clip_value_max": 1}]]}, {"class_name": "TFOpLambda", "config": {"name": "tf.math.multiply_1", "trainable": false, "dtype": "float32", "function": "math.multiply"}, "name": "tf.math.multiply_1", "inbound_nodes": [["conv2d", 0, 0, {"y": ["tf.clip_by_value", 0, 0], "name": null}]]}, {"class_name": "DepthwiseConv2D", "config": {"name": "depthwise_conv2d", "trainable": false, "dtype": "float32", "kernel_size": [3, 3], "strides": [1, 1], "padding": "same", "data_format": "channels_last", "dilation_rate": [1, 1], "groups": 1, "activation": "linear", "use_bias": true, "bias_initializer": {"class_name": "Zeros", "config": {}}, "bias_regularizer": null, "activity_regularizer": null, "bias_constraint": null, "depth_multiplier": 1, "depthwise_initializer": {"class_name": "GlorotUniform", "config": {"seed": null}}, "depthwise_regularizer": null, "depthwise_constraint": null}, "name": "depthwise_conv2d", "inbound_nodes": [[["tf.math.multiply_1", 0, 0, {}]]]}, {"class_name": "TFOpLambda", "config": {"name": "tf.nn.relu", "trainable": false, "dtype": "float32", "function": "nn.relu"}, "name": "tf.nn.relu", "inbound_nodes": [["depthwise_conv2d", 0, 0, {"name": null}]]}, {"class_name": "Conv2D", "config": {"name": "conv2d_1", "trainable": false, "dtype": "float32", "filters": 16, "kernel_size": [1, 1], "strides": [1, 1], "padding": "valid", "data_format": "channels_last", "dilation_rate": [1, 1], "groups": 1, "activation": "linear", "use_bias": true, "kernel_initializer": {"class_name": "GlorotUniform", "config": {"seed": null}}, "bias_initializer": {"class_name": "Zeros", "config": {}}, "kernel_regularizer": null, "bias_regularizer": null, "activity_regularizer": null, "kernel_constraint": null, "bias_constraint": null}, "name": "conv2d_1", "inbound_nodes": [[["tf.nn.relu", 0, 0, {}]]]}, {"class_name": "TFOpLambda", "config": {"name": "tf.__operators__.add_1", "trainable": false, "dtype": "float32", "function": "__operators__.add"}, "name": "tf.__operators__.add_1", "inbound_nodes": [["conv2d_1", 0, 0, {"y": ["tf.math.multiply_1", 0, 0], "name": null}]]}, {"class_name": "Conv2D", "config": {"name": "conv2d_2", "trainable": false, "dtype": "float32", "filters": 64, "kernel_size": [1, 1], "strides": [1, 1], "padding": "valid", "data_format": "channels_last", "dilation_rate": [1, 1], "groups": 1, "activation": "linear", "use_bias": true, "kernel_initializer": {"class_name": "GlorotUniform", "config": {"seed": null}}, "bias_initializer": {"class_name": "Zeros", "config": {}}, "kernel_regularizer": null, "bias_regularizer": null, "activity_regularizer": null, "kernel_constraint": null, "bias_constraint": null}, "name": "conv2d_2", "inbound_nodes": [[["tf.__operators__.add_1", 0, 0, {}]]]}, {"class_name": "TFOpLambda", "config": {"name": "tf.nn.relu_1", "trainable": false, "dtype": "float32", "function": "nn.relu"}, "name": "tf.nn.relu_1", "inbound_nodes": [["conv2d_2", 0, 0, {"name": null}]]}, {"class_name": "ZeroPadding2D", "config": {"name": "zero_padding2d_1", "trainable": false, "dtype": "float32", "padding": [[1, 1], [1, 1]], "data_format": "channels_last"}, "name": "zero_padding2d_1", "inbound_nodes": [[["tf.nn.relu_1", 0, 0, {}]]]}, {"class_name": "DepthwiseConv2D", "config": {"name": "depthwise_conv2d_1", "trainable": false, "dtype": "float32", "kernel_size": [3, 3], "strides": [2, 2], "padding": "valid", "data_format": "channels_last", "dilation_rate": [1, 1], "groups": 1, "activation": "linear", "use_bias": true, "bias_initializer": {"class_name": "Zeros", "config": {}}, "bias_regularizer": null, "activity_regularizer": null, "bias_constraint": null, "depth_multiplier": 1, "depthwise_initializer": {"class_name": "GlorotUniform", "config": {"seed": null}}, "depthwise_regularizer": null, "depthwise_constraint": null}, "name": "depthwise_conv2d_1", "inbound_nodes": [[["zero_padding2d_1", 0, 0, {}]]]}, {"class_name": "TFOpLambda", "config": {"name": "tf.nn.relu_2", "trainable": false, "dtype": "float32", "function": "nn.relu"}, "name": "tf.nn.relu_2", "inbound_nodes": [["depthwise_conv2d_1", 0, 0, {"name": null}]]}, {"class_name": "Conv2D", "config": {"name": "conv2d_3", "trainable": false, "dtype": "float32", "filters": 24, "kernel_size": [1, 1], "strides": [1, 1], "padding": "valid", "data_format": "channels_last", "dilation_rate": [1, 1], "groups": 1, "activation": "linear", "use_bias": true, "kernel_initializer": {"class_name": "GlorotUniform", "config": {"seed": null}}, "bias_initializer": {"class_name": "Zeros", "config": {}}, "kernel_regularizer": null, "bias_regularizer": null, "activity_regularizer": null, "kernel_constraint": null, "bias_constraint": null}, "name": "conv2d_3", "inbound_nodes": [[["tf.nn.relu_2", 0, 0, {}]]]}, {"class_name": "Conv2D", "config": {"name": "conv2d_4", "trainable": false, "dtype": "float32", "filters": 72, "kernel_size": [1, 1], "strides": [1, 1], "padding": "valid", "data_format": "channels_last", "dilation_rate": [1, 1], "groups": 1, "activation": "linear", "use_bias": true, "kernel_initializer": {"class_name": "GlorotUniform", "config": {"seed": null}}, "bias_initializer": {"class_name": "Zeros", "config": {}}, "kernel_regularizer": null, "bias_regularizer": null, "activity_regularizer": null, "kernel_constraint": null, "bias_constraint": null}, "name": "conv2d_4", "inbound_nodes": [[["conv2d_3", 0, 0, {}]]]}, {"class_name": "TFOpLambda", "config": {"name": "tf.nn.relu_3", "trainable": false, "dtype": "float32", "function": "nn.relu"}, "name": "tf.nn.relu_3", "inbound_nodes": [["conv2d_4", 0, 0, {"name": null}]]}, {"class_name": "DepthwiseConv2D", "config": {"name": "depthwise_conv2d_2", "trainable": false, "dtype": "float32", "kernel_size": [3, 3], "strides": [1, 1], "padding": "same", "data_format": "channels_last", "dilation_rate": [1, 1], "groups": 1, "activation": "linear", "use_bias": true, "bias_initializer": {"class_name": "Zeros", "config": {}}, "bias_regularizer": null, "activity_regularizer": null, "bias_constraint": null, "depth_multiplier": 1, "depthwise_initializer": {"class_name": "GlorotUniform", "config": {"seed": null}}, "depthwise_regularizer": null, "depthwise_constraint": null}, "name": "depthwise_conv2d_2", "inbound_nodes": [[["tf.nn.relu_3", 0, 0, {}]]]}, {"class_name": "TFOpLambda", "config": {"name": "tf.nn.relu_4", "trainable": false, "dtype": "float32", "function": "nn.relu"}, "name": "tf.nn.relu_4", "inbound_nodes": [["depthwise_conv2d_2", 0, 0, {"name": null}]]}, {"class_name": "Conv2D", "config": {"name": "conv2d_5", "trainable": false, "dtype": "float32", "filters": 24, "kernel_size": [1, 1], "strides": [1, 1], "padding": "valid", "data_format": "channels_last", "dilation_rate": [1, 1], "groups": 1, "activation": "linear", "use_bias": true, "kernel_initializer": {"class_name": "GlorotUniform", "config": {"seed": null}}, "bias_initializer": {"class_name": "Zeros", "config": {}}, "kernel_regularizer": null, "bias_regularizer": null, "activity_regularizer": null, "kernel_constraint": null, "bias_constraint": null}, "name": "conv2d_5", "inbound_nodes": [[["tf.nn.relu_4", 0, 0, {}]]]}, {"class_name": "TFOpLambda", "config": {"name": "tf.__operators__.add_2", "trainable": false, "dtype": "float32", "function": "__operators__.add"}, "name": "tf.__operators__.add_2", "inbound_nodes": [["conv2d_5", 0, 0, {"y": ["conv2d_3", 0, 0], "name": null}]]}, {"class_name": "Conv2D", "config": {"name": "conv2d_6", "trainable": false, "dtype": "float32", "filters": 72, "kernel_size": [1, 1], "strides": [1, 1], "padding": "valid", "data_format": "channels_last", "dilation_rate": [1, 1], "groups": 1, "activation": "linear", "use_bias": true, "kernel_initializer": {"class_name": "GlorotUniform", "config": {"seed": null}}, "bias_initializer": {"class_name": "Zeros", "config": {}}, "kernel_regularizer": null, "bias_regularizer": null, "activity_regularizer": null, "kernel_constraint": null, "bias_constraint": null}, "name": "conv2d_6", "inbound_nodes": [[["tf.__operators__.add_2", 0, 0, {}]]]}, {"class_name": "TFOpLambda", "config": {"name": "tf.nn.relu_5", "trainable": false, "dtype": "float32", "function": "nn.relu"}, "name": "tf.nn.relu_5", "inbound_nodes": [["conv2d_6", 0, 0, {"name": null}]]}, {"class_name": "ZeroPadding2D", "config": {"name": "zero_padding2d_2", "trainable": false, "dtype": "float32", "padding": [[2, 2], [2, 2]], "data_format": "channels_last"}, "name": "zero_padding2d_2", "inbound_nodes": [[["tf.nn.relu_5", 0, 0, {}]]]}, {"class_name": "DepthwiseConv2D", "config": {"name": "depthwise_conv2d_3", "trainable": false, "dtype": "float32", "kernel_size": [5, 5], "strides": [2, 2], "padding": "valid", "data_format": "channels_last", "dilation_rate": [1, 1], "groups": 1, "activation": "linear", "use_bias": true, "bias_initializer": {"class_name": "Zeros", "config": {}}, "bias_regularizer": null, "activity_regularizer": null, "bias_constraint": null, "depth_multiplier": 1, "depthwise_initializer": {"class_name": "GlorotUniform", "config": {"seed": null}}, "depthwise_regularizer": null, "depthwise_constraint": null}, "name": "depthwise_conv2d_3", "inbound_nodes": [[["zero_padding2d_2", 0, 0, {}]]]}, {"class_name": "TFOpLambda", "config": {"name": "tf.nn.relu_6", "trainable": false, "dtype": "float32", "function": "nn.relu"}, "name": "tf.nn.relu_6", "inbound_nodes": [["depthwise_conv2d_3", 0, 0, {"name": null}]]}, {"class_name": "TFOpLambda", "config": {"name": "tf.math.reduce_mean", "trainable": false, "dtype": "float32", "function": "math.reduce_mean"}, "name": "tf.math.reduce_mean", "inbound_nodes": [["tf.nn.relu_6", 0, 0, {"axis": [1, 2], "keepdims": true}]]}, {"class_name": "Conv2D", "config": {"name": "conv2d_7", "trainable": false, "dtype": "float32", "filters": 24, "kernel_size": [1, 1], "strides": [1, 1], "padding": "valid", "data_format": "channels_last", "dilation_rate": [1, 1], "groups": 1, "activation": "linear", "use_bias": true, "kernel_initializer": {"class_name": "GlorotUniform", "config": {"seed": null}}, "bias_initializer": {"class_name": "Zeros", "config": {}}, "kernel_regularizer": null, "bias_regularizer": null, "activity_regularizer": null, "kernel_constraint": null, "bias_constraint": null}, "name": "conv2d_7", "inbound_nodes": [[["tf.math.reduce_mean", 0, 0, {}]]]}, {"class_name": "TFOpLambda", "config": {"name": "tf.nn.relu_7", "trainable": false, "dtype": "float32", "function": "nn.relu"}, "name": "tf.nn.relu_7", "inbound_nodes": [["conv2d_7", 0, 0, {"name": null}]]}, {"class_name": "Conv2D", "config": {"name": "conv2d_8", "trainable": false, "dtype": "float32", "filters": 72, "kernel_size": [1, 1], "strides": [1, 1], "padding": "valid", "data_format": "channels_last", "dilation_rate": [1, 1], "groups": 1, "activation": "linear", "use_bias": true, "kernel_initializer": {"class_name": "GlorotUniform", "config": {"seed": null}}, "bias_initializer": {"class_name": "Zeros", "config": {}}, "kernel_regularizer": null, "bias_regularizer": null, "activity_regularizer": null, "kernel_constraint": null, "bias_constraint": null}, "name": "conv2d_8", "inbound_nodes": [[["tf.nn.relu_7", 0, 0, {}]]]}, {"class_name": "TFOpLambda", "config": {"name": "tf.math.multiply_2", "trainable": false, "dtype": "float32", "function": "math.multiply"}, "name": "tf.math.multiply_2", "inbound_nodes": [["_CONSTANT_VALUE", -1, 0.1666666716337204, {"y": ["conv2d_8", 0, 0], "name": null}]]}, {"class_name": "TFOpLambda", "config": {"name": "tf.__operators__.add_3", "trainable": false, "dtype": "float32", "function": "__operators__.add"}, "name": "tf.__operators__.add_3", "inbound_nodes": [["tf.math.multiply_2", 0, 0, {"y": 0.5, "name": null}]]}, {"class_name": "TFOpLambda", "config": {"name": "tf.clip_by_value_1", "trainable": false, "dtype": "float32", "function": "clip_by_value"}, "name": "tf.clip_by_value_1", "inbound_nodes": [["tf.__operators__.add_3", 0, 0, {"clip_value_min": 0, "clip_value_max": 1}]]}, {"class_name": "TFOpLambda", "config": {"name": "tf.math.multiply_3", "trainable": false, "dtype": "float32", "function": "math.multiply"}, "name": "tf.math.multiply_3", "inbound_nodes": [["tf.clip_by_value_1", 0, 0, {"y": ["tf.nn.relu_6", 0, 0], "name": null}]]}, {"class_name": "Conv2D", "config": {"name": "conv2d_9", "trainable": false, "dtype": "float32", "filters": 40, "kernel_size": [1, 1], "strides": [1, 1], "padding": "valid", "data_format": "channels_last", "dilation_rate": [1, 1], "groups": 1, "activation": "linear", "use_bias": true, "kernel_initializer": {"class_name": "GlorotUniform", "config": {"seed": null}}, "bias_initializer": {"class_name": "Zeros", "config": {}}, "kernel_regularizer": null, "bias_regularizer": null, "activity_regularizer": null, "kernel_constraint": null, "bias_constraint": null}, "name": "conv2d_9", "inbound_nodes": [[["tf.math.multiply_3", 0, 0, {}]]]}, {"class_name": "Conv2D", "config": {"name": "conv2d_10", "trainable": false, "dtype": "float32", "filters": 120, "kernel_size": [1, 1], "strides": [1, 1], "padding": "valid", "data_format": "channels_last", "dilation_rate": [1, 1], "groups": 1, "activation": "linear", "use_bias": true, "kernel_initializer": {"class_name": "GlorotUniform", "config": {"seed": null}}, "bias_initializer": {"class_name": "Zeros", "config": {}}, "kernel_regularizer": null, "bias_regularizer": null, "activity_regularizer": null, "kernel_constraint": null, "bias_constraint": null}, "name": "conv2d_10", "inbound_nodes": [[["conv2d_9", 0, 0, {}]]]}, {"class_name": "TFOpLambda", "config": {"name": "tf.nn.relu_8", "trainable": false, "dtype": "float32", "function": "nn.relu"}, "name": "tf.nn.relu_8", "inbound_nodes": [["conv2d_10", 0, 0, {"name": null}]]}, {"class_name": "ZeroPadding2D", "config": {"name": "zero_padding2d_3", "trainable": false, "dtype": "float32", "padding": [[2, 2], [2, 2]], "data_format": "channels_last"}, "name": "zero_padding2d_3", "inbound_nodes": [[["tf.nn.relu_8", 0, 0, {}]]]}, {"class_name": "DepthwiseConv2D", "config": {"name": "depthwise_conv2d_4", "trainable": false, "dtype": "float32", "kernel_size": [5, 5], "strides": [1, 1], "padding": "valid", "data_format": "channels_last", "dilation_rate": [1, 1], "groups": 1, "activation": "linear", "use_bias": true, "bias_initializer": {"class_name": "Zeros", "config": {}}, "bias_regularizer": null, "activity_regularizer": null, "bias_constraint": null, "depth_multiplier": 1, "depthwise_initializer": {"class_name": "GlorotUniform", "config": {"seed": null}}, "depthwise_regularizer": null, "depthwise_constraint": null}, "name": "depthwise_conv2d_4", "inbound_nodes": [[["zero_padding2d_3", 0, 0, {}]]]}, {"class_name": "TFOpLambda", "config": {"name": "tf.nn.relu_9", "trainable": false, "dtype": "float32", "function": "nn.relu"}, "name": "tf.nn.relu_9", "inbound_nodes": [["depthwise_conv2d_4", 0, 0, {"name": null}]]}, {"class_name": "TFOpLambda", "config": {"name": "tf.math.reduce_mean_1", "trainable": false, "dtype": "float32", "function": "math.reduce_mean"}, "name": "tf.math.reduce_mean_1", "inbound_nodes": [["tf.nn.relu_9", 0, 0, {"axis": [1, 2], "keepdims": true}]]}, {"class_name": "Conv2D", "config": {"name": "conv2d_11", "trainable": false, "dtype": "float32", "filters": 32, "kernel_size": [1, 1], "strides": [1, 1], "padding": "valid", "data_format": "channels_last", "dilation_rate": [1, 1], "groups": 1, "activation": "linear", "use_bias": true, "kernel_initializer": {"class_name": "GlorotUniform", "config": {"seed": null}}, "bias_initializer": {"class_name": "Zeros", "config": {}}, "kernel_regularizer": null, "bias_regularizer": null, "activity_regularizer": null, "kernel_constraint": null, "bias_constraint": null}, "name": "conv2d_11", "inbound_nodes": [[["tf.math.reduce_mean_1", 0, 0, {}]]]}, {"class_name": "TFOpLambda", "config": {"name": "tf.nn.relu_10", "trainable": false, "dtype": "float32", "function": "nn.relu"}, "name": "tf.nn.relu_10", "inbound_nodes": [["conv2d_11", 0, 0, {"name": null}]]}, {"class_name": "Conv2D", "config": {"name": "conv2d_12", "trainable": false, "dtype": "float32", "filters": 120, "kernel_size": [1, 1], "strides": [1, 1], "padding": "valid", "data_format": "channels_last", "dilation_rate": [1, 1], "groups": 1, "activation": "linear", "use_bias": true, "kernel_initializer": {"class_name": "GlorotUniform", "config": {"seed": null}}, "bias_initializer": {"class_name": "Zeros", "config": {}}, "kernel_regularizer": null, "bias_regularizer": null, "activity_regularizer": null, "kernel_constraint": null, "bias_constraint": null}, "name": "conv2d_12", "inbound_nodes": [[["tf.nn.relu_10", 0, 0, {}]]]}, {"class_name": "TFOpLambda", "config": {"name": "tf.math.multiply_4", "trainable": false, "dtype": "float32", "function": "math.multiply"}, "name": "tf.math.multiply_4", "inbound_nodes": [["_CONSTANT_VALUE", -1, 0.1666666716337204, {"y": ["conv2d_12", 0, 0], "name": null}]]}, {"class_name": "TFOpLambda", "config": {"name": "tf.__operators__.add_4", "trainable": false, "dtype": "float32", "function": "__operators__.add"}, "name": "tf.__operators__.add_4", "inbound_nodes": [["tf.math.multiply_4", 0, 0, {"y": 0.5, "name": null}]]}, {"class_name": "TFOpLambda", "config": {"name": "tf.clip_by_value_2", "trainable": false, "dtype": "float32", "function": "clip_by_value"}, "name": "tf.clip_by_value_2", "inbound_nodes": [["tf.__operators__.add_4", 0, 0, {"clip_value_min": 0, "clip_value_max": 1}]]}, {"class_name": "TFOpLambda", "config": {"name": "tf.math.multiply_5", "trainable": false, "dtype": "float32", "function": "math.multiply"}, "name": "tf.math.multiply_5", "inbound_nodes": [["tf.clip_by_value_2", 0, 0, {"y": ["tf.nn.relu_9", 0, 0], "name": null}]]}, {"class_name": "Conv2D", "config": {"name": "conv2d_13", "trainable": false, "dtype": "float32", "filters": 40, "kernel_size": [1, 1], "strides": [1, 1], "padding": "valid", "data_format": "channels_last", "dilation_rate": [1, 1], "groups": 1, "activation": "linear", "use_bias": true, "kernel_initializer": {"class_name": "GlorotUniform", "config": {"seed": null}}, "bias_initializer": {"class_name": "Zeros", "config": {}}, "kernel_regularizer": null, "bias_regularizer": null, "activity_regularizer": null, "kernel_constraint": null, "bias_constraint": null}, "name": "conv2d_13", "inbound_nodes": [[["tf.math.multiply_5", 0, 0, {}]]]}, {"class_name": "TFOpLambda", "config": {"name": "tf.__operators__.add_5", "trainable": false, "dtype": "float32", "function": "__operators__.add"}, "name": "tf.__operators__.add_5", "inbound_nodes": [["conv2d_13", 0, 0, {"y": ["conv2d_9", 0, 0], "name": null}]]}, {"class_name": "Conv2D", "config": {"name": "conv2d_14", "trainable": false, "dtype": "float32", "filters": 120, "kernel_size": [1, 1], "strides": [1, 1], "padding": "valid", "data_format": "channels_last", "dilation_rate": [1, 1], "groups": 1, "activation": "linear", "use_bias": true, "kernel_initializer": {"class_name": "GlorotUniform", "config": {"seed": null}}, "bias_initializer": {"class_name": "Zeros", "config": {}}, "kernel_regularizer": null, "bias_regularizer": null, "activity_regularizer": null, "kernel_constraint": null, "bias_constraint": null}, "name": "conv2d_14", "inbound_nodes": [[["tf.__operators__.add_5", 0, 0, {}]]]}, {"class_name": "TFOpLambda", "config": {"name": "tf.nn.relu_11", "trainable": false, "dtype": "float32", "function": "nn.relu"}, "name": "tf.nn.relu_11", "inbound_nodes": [["conv2d_14", 0, 0, {"name": null}]]}, {"class_name": "ZeroPadding2D", "config": {"name": "zero_padding2d_4", "trainable": false, "dtype": "float32", "padding": [[2, 2], [2, 2]], "data_format": "channels_last"}, "name": "zero_padding2d_4", "inbound_nodes": [[["tf.nn.relu_11", 0, 0, {}]]]}, {"class_name": "DepthwiseConv2D", "config": {"name": "depthwise_conv2d_5", "trainable": false, "dtype": "float32", "kernel_size": [5, 5], "strides": [1, 1], "padding": "valid", "data_format": "channels_last", "dilation_rate": [1, 1], "groups": 1, "activation": "linear", "use_bias": true, "bias_initializer": {"class_name": "Zeros", "config": {}}, "bias_regularizer": null, "activity_regularizer": null, "bias_constraint": null, "depth_multiplier": 1, "depthwise_initializer": {"class_name": "GlorotUniform", "config": {"seed": null}}, "depthwise_regularizer": null, "depthwise_constraint": null}, "name": "depthwise_conv2d_5", "inbound_nodes": [[["zero_padding2d_4", 0, 0, {}]]]}, {"class_name": "TFOpLambda", "config": {"name": "tf.nn.relu_12", "trainable": false, "dtype": "float32", "function": "nn.relu"}, "name": "tf.nn.relu_12", "inbound_nodes": [["depthwise_conv2d_5", 0, 0, {"name": null}]]}, {"class_name": "TFOpLambda", "config": {"name": "tf.math.reduce_mean_2", "trainable": false, "dtype": "float32", "function": "math.reduce_mean"}, "name": "tf.math.reduce_mean_2", "inbound_nodes": [["tf.nn.relu_12", 0, 0, {"axis": [1, 2], "keepdims": true}]]}, {"class_name": "Conv2D", "config": {"name": "conv2d_15", "trainable": false, "dtype": "float32", "filters": 32, "kernel_size": [1, 1], "strides": [1, 1], "padding": "valid", "data_format": "channels_last", "dilation_rate": [1, 1], "groups": 1, "activation": "linear", "use_bias": true, "kernel_initializer": {"class_name": "GlorotUniform", "config": {"seed": null}}, "bias_initializer": {"class_name": "Zeros", "config": {}}, "kernel_regularizer": null, "bias_regularizer": null, "activity_regularizer": null, "kernel_constraint": null, "bias_constraint": null}, "name": "conv2d_15", "inbound_nodes": [[["tf.math.reduce_mean_2", 0, 0, {}]]]}, {"class_name": "TFOpLambda", "config": {"name": "tf.nn.relu_13", "trainable": false, "dtype": "float32", "function": "nn.relu"}, "name": "tf.nn.relu_13", "inbound_nodes": [["conv2d_15", 0, 0, {"name": null}]]}, {"class_name": "Conv2D", "config": {"name": "conv2d_16", "trainable": false, "dtype": "float32", "filters": 120, "kernel_size": [1, 1], "strides": [1, 1], "padding": "valid", "data_format": "channels_last", "dilation_rate": [1, 1], "groups": 1, "activation": "linear", "use_bias": true, "kernel_initializer": {"class_name": "GlorotUniform", "config": {"seed": null}}, "bias_initializer": {"class_name": "Zeros", "config": {}}, "kernel_regularizer": null, "bias_regularizer": null, "activity_regularizer": null, "kernel_constraint": null, "bias_constraint": null}, "name": "conv2d_16", "inbound_nodes": [[["tf.nn.relu_13", 0, 0, {}]]]}, {"class_name": "TFOpLambda", "config": {"name": "tf.math.multiply_6", "trainable": false, "dtype": "float32", "function": "math.multiply"}, "name": "tf.math.multiply_6", "inbound_nodes": [["_CONSTANT_VALUE", -1, 0.1666666716337204, {"y": ["conv2d_16", 0, 0], "name": null}]]}, {"class_name": "TFOpLambda", "config": {"name": "tf.__operators__.add_6", "trainable": false, "dtype": "float32", "function": "__operators__.add"}, "name": "tf.__operators__.add_6", "inbound_nodes": [["tf.math.multiply_6", 0, 0, {"y": 0.5, "name": null}]]}, {"class_name": "TFOpLambda", "config": {"name": "tf.clip_by_value_3", "trainable": false, "dtype": "float32", "function": "clip_by_value"}, "name": "tf.clip_by_value_3", "inbound_nodes": [["tf.__operators__.add_6", 0, 0, {"clip_value_min": 0, "clip_value_max": 1}]]}, {"class_name": "TFOpLambda", "config": {"name": "tf.math.multiply_7", "trainable": false, "dtype": "float32", "function": "math.multiply"}, "name": "tf.math.multiply_7", "inbound_nodes": [["tf.clip_by_value_3", 0, 0, {"y": ["tf.nn.relu_12", 0, 0], "name": null}]]}, {"class_name": "Conv2D", "config": {"name": "conv2d_17", "trainable": false, "dtype": "float32", "filters": 40, "kernel_size": [1, 1], "strides": [1, 1], "padding": "valid", "data_format": "channels_last", "dilation_rate": [1, 1], "groups": 1, "activation": "linear", "use_bias": true, "kernel_initializer": {"class_name": "GlorotUniform", "config": {"seed": null}}, "bias_initializer": {"class_name": "Zeros", "config": {}}, "kernel_regularizer": null, "bias_regularizer": null, "activity_regularizer": null, "kernel_constraint": null, "bias_constraint": null}, "name": "conv2d_17", "inbound_nodes": [[["tf.math.multiply_7", 0, 0, {}]]]}, {"class_name": "TFOpLambda", "config": {"name": "tf.__operators__.add_7", "trainable": false, "dtype": "float32", "function": "__operators__.add"}, "name": "tf.__operators__.add_7", "inbound_nodes": [["conv2d_17", 0, 0, {"y": ["tf.__operators__.add_5", 0, 0], "name": null}]]}, {"class_name": "Conv2D", "config": {"name": "conv2d_18", "trainable": false, "dtype": "float32", "filters": 240, "kernel_size": [1, 1], "strides": [1, 1], "padding": "valid", "data_format": "channels_last", "dilation_rate": [1, 1], "groups": 1, "activation": "linear", "use_bias": true, "kernel_initializer": {"class_name": "GlorotUniform", "config": {"seed": null}}, "bias_initializer": {"class_name": "Zeros", "config": {}}, "kernel_regularizer": null, "bias_regularizer": null, "activity_regularizer": null, "kernel_constraint": null, "bias_constraint": null}, "name": "conv2d_18", "inbound_nodes": [[["tf.__operators__.add_7", 0, 0, {}]]]}, {"class_name": "TFOpLambda", "config": {"name": "tf.math.multiply_8", "trainable": false, "dtype": "float32", "function": "math.multiply"}, "name": "tf.math.multiply_8", "inbound_nodes": [["_CONSTANT_VALUE", -1, 0.1666666716337204, {"y": ["conv2d_18", 0, 0], "name": null}]]}, {"class_name": "TFOpLambda", "config": {"name": "tf.__operators__.add_8", "trainable": false, "dtype": "float32", "function": "__operators__.add"}, "name": "tf.__operators__.add_8", "inbound_nodes": [["tf.math.multiply_8", 0, 0, {"y": 0.5, "name": null}]]}, {"class_name": "TFOpLambda", "config": {"name": "tf.clip_by_value_4", "trainable": false, "dtype": "float32", "function": "clip_by_value"}, "name": "tf.clip_by_value_4", "inbound_nodes": [["tf.__operators__.add_8", 0, 0, {"clip_value_min": 0, "clip_value_max": 1}]]}, {"class_name": "TFOpLambda", "config": {"name": "tf.math.multiply_9", "trainable": false, "dtype": "float32", "function": "math.multiply"}, "name": "tf.math.multiply_9", "inbound_nodes": [["conv2d_18", 0, 0, {"y": ["tf.clip_by_value_4", 0, 0], "name": null}]]}, {"class_name": "ZeroPadding2D", "config": {"name": "zero_padding2d_5", "trainable": false, "dtype": "float32", "padding": [[1, 1], [1, 1]], "data_format": "channels_last"}, "name": "zero_padding2d_5", "inbound_nodes": [[["tf.math.multiply_9", 0, 0, {}]]]}, {"class_name": "DepthwiseConv2D", "config": {"name": "depthwise_conv2d_6", "trainable": false, "dtype": "float32", "kernel_size": [3, 3], "strides": [2, 2], "padding": "valid", "data_format": "channels_last", "dilation_rate": [1, 1], "groups": 1, "activation": "linear", "use_bias": true, "bias_initializer": {"class_name": "Zeros", "config": {}}, "bias_regularizer": null, "activity_regularizer": null, "bias_constraint": null, "depth_multiplier": 1, "depthwise_initializer": {"class_name": "GlorotUniform", "config": {"seed": null}}, "depthwise_regularizer": null, "depthwise_constraint": null}, "name": "depthwise_conv2d_6", "inbound_nodes": [[["zero_padding2d_5", 0, 0, {}]]]}, {"class_name": "TFOpLambda", "config": {"name": "tf.math.multiply_10", "trainable": false, "dtype": "float32", "function": "math.multiply"}, "name": "tf.math.multiply_10", "inbound_nodes": [["_CONSTANT_VALUE", -1, 0.1666666716337204, {"y": ["depthwise_conv2d_6", 0, 0], "name": null}]]}, {"class_name": "TFOpLambda", "config": {"name": "tf.__operators__.add_9", "trainable": false, "dtype": "float32", "function": "__operators__.add"}, "name": "tf.__operators__.add_9", "inbound_nodes": [["tf.math.multiply_10", 0, 0, {"y": 0.5, "name": null}]]}, {"class_name": "TFOpLambda", "config": {"name": "tf.clip_by_value_5", "trainable": false, "dtype": "float32", "function": "clip_by_value"}, "name": "tf.clip_by_value_5", "inbound_nodes": [["tf.__operators__.add_9", 0, 0, {"clip_value_min": 0, "clip_value_max": 1}]]}, {"class_name": "TFOpLambda", "config": {"name": "tf.math.multiply_11", "trainable": false, "dtype": "float32", "function": "math.multiply"}, "name": "tf.math.multiply_11", "inbound_nodes": [["depthwise_conv2d_6", 0, 0, {"y": ["tf.clip_by_value_5", 0, 0], "name": null}]]}, {"class_name": "Conv2D", "config": {"name": "conv2d_19", "trainable": false, "dtype": "float32", "filters": 80, "kernel_size": [1, 1], "strides": [1, 1], "padding": "valid", "data_format": "channels_last", "dilation_rate": [1, 1], "groups": 1, "activation": "linear", "use_bias": true, "kernel_initializer": {"class_name": "GlorotUniform", "config": {"seed": null}}, "bias_initializer": {"class_name": "Zeros", "config": {}}, "kernel_regularizer": null, "bias_regularizer": null, "activity_regularizer": null, "kernel_constraint": null, "bias_constraint": null}, "name": "conv2d_19", "inbound_nodes": [[["tf.math.multiply_11", 0, 0, {}]]]}, {"class_name": "Conv2D", "config": {"name": "conv2d_20", "trainable": false, "dtype": "float32", "filters": 200, "kernel_size": [1, 1], "strides": [1, 1], "padding": "valid", "data_format": "channels_last", "dilation_rate": [1, 1], "groups": 1, "activation": "linear", "use_bias": true, "kernel_initializer": {"class_name": "GlorotUniform", "config": {"seed": null}}, "bias_initializer": {"class_name": "Zeros", "config": {}}, "kernel_regularizer": null, "bias_regularizer": null, "activity_regularizer": null, "kernel_constraint": null, "bias_constraint": null}, "name": "conv2d_20", "inbound_nodes": [[["conv2d_19", 0, 0, {}]]]}, {"class_name": "TFOpLambda", "config": {"name": "tf.math.multiply_12", "trainable": false, "dtype": "float32", "function": "math.multiply"}, "name": "tf.math.multiply_12", "inbound_nodes": [["_CONSTANT_VALUE", -1, 0.1666666716337204, {"y": ["conv2d_20", 0, 0], "name": null}]]}, {"class_name": "TFOpLambda", "config": {"name": "tf.__operators__.add_10", "trainable": false, "dtype": "float32", "function": "__operators__.add"}, "name": "tf.__operators__.add_10", "inbound_nodes": [["tf.math.multiply_12", 0, 0, {"y": 0.5, "name": null}]]}, {"class_name": "TFOpLambda", "config": {"name": "tf.clip_by_value_6", "trainable": false, "dtype": "float32", "function": "clip_by_value"}, "name": "tf.clip_by_value_6", "inbound_nodes": [["tf.__operators__.add_10", 0, 0, {"clip_value_min": 0, "clip_value_max": 1}]]}, {"class_name": "TFOpLambda", "config": {"name": "tf.math.multiply_13", "trainable": false, "dtype": "float32", "function": "math.multiply"}, "name": "tf.math.multiply_13", "inbound_nodes": [["conv2d_20", 0, 0, {"y": ["tf.clip_by_value_6", 0, 0], "name": null}]]}, {"class_name": "DepthwiseConv2D", "config": {"name": "depthwise_conv2d_7", "trainable": false, "dtype": "float32", "kernel_size": [3, 3], "strides": [1, 1], "padding": "same", "data_format": "channels_last", "dilation_rate": [1, 1], "groups": 1, "activation": "linear", "use_bias": true, "bias_initializer": {"class_name": "Zeros", "config": {}}, "bias_regularizer": null, "activity_regularizer": null, "bias_constraint": null, "depth_multiplier": 1, "depthwise_initializer": {"class_name": "GlorotUniform", "config": {"seed": null}}, "depthwise_regularizer": null, "depthwise_constraint": null}, "name": "depthwise_conv2d_7", "inbound_nodes": [[["tf.math.multiply_13", 0, 0, {}]]]}, {"class_name": "TFOpLambda", "config": {"name": "tf.math.multiply_14", "trainable": false, "dtype": "float32", "function": "math.multiply"}, "name": "tf.math.multiply_14", "inbound_nodes": [["_CONSTANT_VALUE", -1, 0.1666666716337204, {"y": ["depthwise_conv2d_7", 0, 0], "name": null}]]}, {"class_name": "TFOpLambda", "config": {"name": "tf.__operators__.add_11", "trainable": false, "dtype": "float32", "function": "__operators__.add"}, "name": "tf.__operators__.add_11", "inbound_nodes": [["tf.math.multiply_14", 0, 0, {"y": 0.5, "name": null}]]}, {"class_name": "TFOpLambda", "config": {"name": "tf.clip_by_value_7", "trainable": false, "dtype": "float32", "function": "clip_by_value"}, "name": "tf.clip_by_value_7", "inbound_nodes": [["tf.__operators__.add_11", 0, 0, {"clip_value_min": 0, "clip_value_max": 1}]]}, {"class_name": "TFOpLambda", "config": {"name": "tf.math.multiply_15", "trainable": false, "dtype": "float32", "function": "math.multiply"}, "name": "tf.math.multiply_15", "inbound_nodes": [["depthwise_conv2d_7", 0, 0, {"y": ["tf.clip_by_value_7", 0, 0], "name": null}]]}, {"class_name": "Conv2D", "config": {"name": "conv2d_21", "trainable": false, "dtype": "float32", "filters": 80, "kernel_size": [1, 1], "strides": [1, 1], "padding": "valid", "data_format": "channels_last", "dilation_rate": [1, 1], "groups": 1, "activation": "linear", "use_bias": true, "kernel_initializer": {"class_name": "GlorotUniform", "config": {"seed": null}}, "bias_initializer": {"class_name": "Zeros", "config": {}}, "kernel_regularizer": null, "bias_regularizer": null, "activity_regularizer": null, "kernel_constraint": null, "bias_constraint": null}, "name": "conv2d_21", "inbound_nodes": [[["tf.math.multiply_15", 0, 0, {}]]]}, {"class_name": "TFOpLambda", "config": {"name": "tf.__operators__.add_12", "trainable": false, "dtype": "float32", "function": "__operators__.add"}, "name": "tf.__operators__.add_12", "inbound_nodes": [["conv2d_21", 0, 0, {"y": ["conv2d_19", 0, 0], "name": null}]]}, {"class_name": "Conv2D", "config": {"name": "conv2d_22", "trainable": false, "dtype": "float32", "filters": 184, "kernel_size": [1, 1], "strides": [1, 1], "padding": "valid", "data_format": "channels_last", "dilation_rate": [1, 1], "groups": 1, "activation": "linear", "use_bias": true, "kernel_initializer": {"class_name": "GlorotUniform", "config": {"seed": null}}, "bias_initializer": {"class_name": "Zeros", "config": {}}, "kernel_regularizer": null, "bias_regularizer": null, "activity_regularizer": null, "kernel_constraint": null, "bias_constraint": null}, "name": "conv2d_22", "inbound_nodes": [[["tf.__operators__.add_12", 0, 0, {}]]]}, {"class_name": "TFOpLambda", "config": {"name": "tf.math.multiply_16", "trainable": false, "dtype": "float32", "function": "math.multiply"}, "name": "tf.math.multiply_16", "inbound_nodes": [["_CONSTANT_VALUE", -1, 0.1666666716337204, {"y": ["conv2d_22", 0, 0], "name": null}]]}, {"class_name": "TFOpLambda", "config": {"name": "tf.__operators__.add_13", "trainable": false, "dtype": "float32", "function": "__operators__.add"}, "name": "tf.__operators__.add_13", "inbound_nodes": [["tf.math.multiply_16", 0, 0, {"y": 0.5, "name": null}]]}, {"class_name": "TFOpLambda", "config": {"name": "tf.clip_by_value_8", "trainable": false, "dtype": "float32", "function": "clip_by_value"}, "name": "tf.clip_by_value_8", "inbound_nodes": [["tf.__operators__.add_13", 0, 0, {"clip_value_min": 0, "clip_value_max": 1}]]}, {"class_name": "TFOpLambda", "config": {"name": "tf.math.multiply_17", "trainable": false, "dtype": "float32", "function": "math.multiply"}, "name": "tf.math.multiply_17", "inbound_nodes": [["conv2d_22", 0, 0, {"y": ["tf.clip_by_value_8", 0, 0], "name": null}]]}, {"class_name": "DepthwiseConv2D", "config": {"name": "depthwise_conv2d_8", "trainable": false, "dtype": "float32", "kernel_size": [3, 3], "strides": [1, 1], "padding": "same", "data_format": "channels_last", "dilation_rate": [1, 1], "groups": 1, "activation": "linear", "use_bias": true, "bias_initializer": {"class_name": "Zeros", "config": {}}, "bias_regularizer": null, "activity_regularizer": null, "bias_constraint": null, "depth_multiplier": 1, "depthwise_initializer": {"class_name": "GlorotUniform", "config": {"seed": null}}, "depthwise_regularizer": null, "depthwise_constraint": null}, "name": "depthwise_conv2d_8", "inbound_nodes": [[["tf.math.multiply_17", 0, 0, {}]]]}, {"class_name": "TFOpLambda", "config": {"name": "tf.math.multiply_18", "trainable": false, "dtype": "float32", "function": "math.multiply"}, "name": "tf.math.multiply_18", "inbound_nodes": [["_CONSTANT_VALUE", -1, 0.1666666716337204, {"y": ["depthwise_conv2d_8", 0, 0], "name": null}]]}, {"class_name": "TFOpLambda", "config": {"name": "tf.__operators__.add_14", "trainable": false, "dtype": "float32", "function": "__operators__.add"}, "name": "tf.__operators__.add_14", "inbound_nodes": [["tf.math.multiply_18", 0, 0, {"y": 0.5, "name": null}]]}, {"class_name": "TFOpLambda", "config": {"name": "tf.clip_by_value_9", "trainable": false, "dtype": "float32", "function": "clip_by_value"}, "name": "tf.clip_by_value_9", "inbound_nodes": [["tf.__operators__.add_14", 0, 0, {"clip_value_min": 0, "clip_value_max": 1}]]}, {"class_name": "TFOpLambda", "config": {"name": "tf.math.multiply_19", "trainable": false, "dtype": "float32", "function": "math.multiply"}, "name": "tf.math.multiply_19", "inbound_nodes": [["depthwise_conv2d_8", 0, 0, {"y": ["tf.clip_by_value_9", 0, 0], "name": null}]]}, {"class_name": "Conv2D", "config": {"name": "conv2d_23", "trainable": false, "dtype": "float32", "filters": 80, "kernel_size": [1, 1], "strides": [1, 1], "padding": "valid", "data_format": "channels_last", "dilation_rate": [1, 1], "groups": 1, "activation": "linear", "use_bias": true, "kernel_initializer": {"class_name": "GlorotUniform", "config": {"seed": null}}, "bias_initializer": {"class_name": "Zeros", "config": {}}, "kernel_regularizer": null, "bias_regularizer": null, "activity_regularizer": null, "kernel_constraint": null, "bias_constraint": null}, "name": "conv2d_23", "inbound_nodes": [[["tf.math.multiply_19", 0, 0, {}]]]}, {"class_name": "TFOpLambda", "config": {"name": "tf.__operators__.add_15", "trainable": false, "dtype": "float32", "function": "__operators__.add"}, "name": "tf.__operators__.add_15", "inbound_nodes": [["conv2d_23", 0, 0, {"y": ["tf.__operators__.add_12", 0, 0], "name": null}]]}, {"class_name": "Conv2D", "config": {"name": "conv2d_24", "trainable": false, "dtype": "float32", "filters": 184, "kernel_size": [1, 1], "strides": [1, 1], "padding": "valid", "data_format": "channels_last", "dilation_rate": [1, 1], "groups": 1, "activation": "linear", "use_bias": true, "kernel_initializer": {"class_name": "GlorotUniform", "config": {"seed": null}}, "bias_initializer": {"class_name": "Zeros", "config": {}}, "kernel_regularizer": null, "bias_regularizer": null, "activity_regularizer": null, "kernel_constraint": null, "bias_constraint": null}, "name": "conv2d_24", "inbound_nodes": [[["tf.__operators__.add_15", 0, 0, {}]]]}, {"class_name": "TFOpLambda", "config": {"name": "tf.math.multiply_20", "trainable": false, "dtype": "float32", "function": "math.multiply"}, "name": "tf.math.multiply_20", "inbound_nodes": [["_CONSTANT_VALUE", -1, 0.1666666716337204, {"y": ["conv2d_24", 0, 0], "name": null}]]}, {"class_name": "TFOpLambda", "config": {"name": "tf.__operators__.add_16", "trainable": false, "dtype": "float32", "function": "__operators__.add"}, "name": "tf.__operators__.add_16", "inbound_nodes": [["tf.math.multiply_20", 0, 0, {"y": 0.5, "name": null}]]}, {"class_name": "TFOpLambda", "config": {"name": "tf.clip_by_value_10", "trainable": false, "dtype": "float32", "function": "clip_by_value"}, "name": "tf.clip_by_value_10", "inbound_nodes": [["tf.__operators__.add_16", 0, 0, {"clip_value_min": 0, "clip_value_max": 1}]]}, {"class_name": "TFOpLambda", "config": {"name": "tf.math.multiply_21", "trainable": false, "dtype": "float32", "function": "math.multiply"}, "name": "tf.math.multiply_21", "inbound_nodes": [["conv2d_24", 0, 0, {"y": ["tf.clip_by_value_10", 0, 0], "name": null}]]}, {"class_name": "DepthwiseConv2D", "config": {"name": "depthwise_conv2d_9", "trainable": false, "dtype": "float32", "kernel_size": [3, 3], "strides": [1, 1], "padding": "same", "data_format": "channels_last", "dilation_rate": [1, 1], "groups": 1, "activation": "linear", "use_bias": true, "bias_initializer": {"class_name": "Zeros", "config": {}}, "bias_regularizer": null, "activity_regularizer": null, "bias_constraint": null, "depth_multiplier": 1, "depthwise_initializer": {"class_name": "GlorotUniform", "config": {"seed": null}}, "depthwise_regularizer": null, "depthwise_constraint": null}, "name": "depthwise_conv2d_9", "inbound_nodes": [[["tf.math.multiply_21", 0, 0, {}]]]}, {"class_name": "TFOpLambda", "config": {"name": "tf.math.multiply_22", "trainable": false, "dtype": "float32", "function": "math.multiply"}, "name": "tf.math.multiply_22", "inbound_nodes": [["_CONSTANT_VALUE", -1, 0.1666666716337204, {"y": ["depthwise_conv2d_9", 0, 0], "name": null}]]}, {"class_name": "TFOpLambda", "config": {"name": "tf.__operators__.add_17", "trainable": false, "dtype": "float32", "function": "__operators__.add"}, "name": "tf.__operators__.add_17", "inbound_nodes": [["tf.math.multiply_22", 0, 0, {"y": 0.5, "name": null}]]}, {"class_name": "TFOpLambda", "config": {"name": "tf.clip_by_value_11", "trainable": false, "dtype": "float32", "function": "clip_by_value"}, "name": "tf.clip_by_value_11", "inbound_nodes": [["tf.__operators__.add_17", 0, 0, {"clip_value_min": 0, "clip_value_max": 1}]]}, {"class_name": "TFOpLambda", "config": {"name": "tf.math.multiply_23", "trainable": false, "dtype": "float32", "function": "math.multiply"}, "name": "tf.math.multiply_23", "inbound_nodes": [["depthwise_conv2d_9", 0, 0, {"y": ["tf.clip_by_value_11", 0, 0], "name": null}]]}, {"class_name": "Conv2D", "config": {"name": "conv2d_25", "trainable": false, "dtype": "float32", "filters": 80, "kernel_size": [1, 1], "strides": [1, 1], "padding": "valid", "data_format": "channels_last", "dilation_rate": [1, 1], "groups": 1, "activation": "linear", "use_bias": true, "kernel_initializer": {"class_name": "GlorotUniform", "config": {"seed": null}}, "bias_initializer": {"class_name": "Zeros", "config": {}}, "kernel_regularizer": null, "bias_regularizer": null, "activity_regularizer": null, "kernel_constraint": null, "bias_constraint": null}, "name": "conv2d_25", "inbound_nodes": [[["tf.math.multiply_23", 0, 0, {}]]]}, {"class_name": "TFOpLambda", "config": {"name": "tf.__operators__.add_18", "trainable": false, "dtype": "float32", "function": "__operators__.add"}, "name": "tf.__operators__.add_18", "inbound_nodes": [["conv2d_25", 0, 0, {"y": ["tf.__operators__.add_15", 0, 0], "name": null}]]}, {"class_name": "Conv2D", "config": {"name": "conv2d_26", "trainable": false, "dtype": "float32", "filters": 480, "kernel_size": [1, 1], "strides": [1, 1], "padding": "valid", "data_format": "channels_last", "dilation_rate": [1, 1], "groups": 1, "activation": "linear", "use_bias": true, "kernel_initializer": {"class_name": "GlorotUniform", "config": {"seed": null}}, "bias_initializer": {"class_name": "Zeros", "config": {}}, "kernel_regularizer": null, "bias_regularizer": null, "activity_regularizer": null, "kernel_constraint": null, "bias_constraint": null}, "name": "conv2d_26", "inbound_nodes": [[["tf.__operators__.add_18", 0, 0, {}]]]}, {"class_name": "TFOpLambda", "config": {"name": "tf.math.multiply_24", "trainable": false, "dtype": "float32", "function": "math.multiply"}, "name": "tf.math.multiply_24", "inbound_nodes": [["_CONSTANT_VALUE", -1, 0.1666666716337204, {"y": ["conv2d_26", 0, 0], "name": null}]]}, {"class_name": "TFOpLambda", "config": {"name": "tf.__operators__.add_19", "trainable": false, "dtype": "float32", "function": "__operators__.add"}, "name": "tf.__operators__.add_19", "inbound_nodes": [["tf.math.multiply_24", 0, 0, {"y": 0.5, "name": null}]]}, {"class_name": "TFOpLambda", "config": {"name": "tf.clip_by_value_12", "trainable": false, "dtype": "float32", "function": "clip_by_value"}, "name": "tf.clip_by_value_12", "inbound_nodes": [["tf.__operators__.add_19", 0, 0, {"clip_value_min": 0, "clip_value_max": 1}]]}, {"class_name": "TFOpLambda", "config": {"name": "tf.math.multiply_25", "trainable": false, "dtype": "float32", "function": "math.multiply"}, "name": "tf.math.multiply_25", "inbound_nodes": [["conv2d_26", 0, 0, {"y": ["tf.clip_by_value_12", 0, 0], "name": null}]]}, {"class_name": "DepthwiseConv2D", "config": {"name": "depthwise_conv2d_10", "trainable": false, "dtype": "float32", "kernel_size": [3, 3], "strides": [1, 1], "padding": "same", "data_format": "channels_last", "dilation_rate": [1, 1], "groups": 1, "activation": "linear", "use_bias": true, "bias_initializer": {"class_name": "Zeros", "config": {}}, "bias_regularizer": null, "activity_regularizer": null, "bias_constraint": null, "depth_multiplier": 1, "depthwise_initializer": {"class_name": "GlorotUniform", "config": {"seed": null}}, "depthwise_regularizer": null, "depthwise_constraint": null}, "name": "depthwise_conv2d_10", "inbound_nodes": [[["tf.math.multiply_25", 0, 0, {}]]]}, {"class_name": "TFOpLambda", "config": {"name": "tf.math.multiply_26", "trainable": false, "dtype": "float32", "function": "math.multiply"}, "name": "tf.math.multiply_26", "inbound_nodes": [["_CONSTANT_VALUE", -1, 0.1666666716337204, {"y": ["depthwise_conv2d_10", 0, 0], "name": null}]]}, {"class_name": "TFOpLambda", "config": {"name": "tf.__operators__.add_20", "trainable": false, "dtype": "float32", "function": "__operators__.add"}, "name": "tf.__operators__.add_20", "inbound_nodes": [["tf.math.multiply_26", 0, 0, {"y": 0.5, "name": null}]]}, {"class_name": "TFOpLambda", "config": {"name": "tf.clip_by_value_13", "trainable": false, "dtype": "float32", "function": "clip_by_value"}, "name": "tf.clip_by_value_13", "inbound_nodes": [["tf.__operators__.add_20", 0, 0, {"clip_value_min": 0, "clip_value_max": 1}]]}, {"class_name": "TFOpLambda", "config": {"name": "tf.math.multiply_27", "trainable": false, "dtype": "float32", "function": "math.multiply"}, "name": "tf.math.multiply_27", "inbound_nodes": [["depthwise_conv2d_10", 0, 0, {"y": ["tf.clip_by_value_13", 0, 0], "name": null}]]}, {"class_name": "TFOpLambda", "config": {"name": "tf.math.reduce_mean_3", "trainable": false, "dtype": "float32", "function": "math.reduce_mean"}, "name": "tf.math.reduce_mean_3", "inbound_nodes": [["tf.math.multiply_27", 0, 0, {"axis": [1, 2], "keepdims": true}]]}, {"class_name": "Conv2D", "config": {"name": "conv2d_27", "trainable": false, "dtype": "float32", "filters": 120, "kernel_size": [1, 1], "strides": [1, 1], "padding": "valid", "data_format": "channels_last", "dilation_rate": [1, 1], "groups": 1, "activation": "linear", "use_bias": true, "kernel_initializer": {"class_name": "GlorotUniform", "config": {"seed": null}}, "bias_initializer": {"class_name": "Zeros", "config": {}}, "kernel_regularizer": null, "bias_regularizer": null, "activity_regularizer": null, "kernel_constraint": null, "bias_constraint": null}, "name": "conv2d_27", "inbound_nodes": [[["tf.math.reduce_mean_3", 0, 0, {}]]]}, {"class_name": "TFOpLambda", "config": {"name": "tf.nn.relu_14", "trainable": false, "dtype": "float32", "function": "nn.relu"}, "name": "tf.nn.relu_14", "inbound_nodes": [["conv2d_27", 0, 0, {"name": null}]]}, {"class_name": "Conv2D", "config": {"name": "conv2d_28", "trainable": false, "dtype": "float32", "filters": 480, "kernel_size": [1, 1], "strides": [1, 1], "padding": "valid", "data_format": "channels_last", "dilation_rate": [1, 1], "groups": 1, "activation": "linear", "use_bias": true, "kernel_initializer": {"class_name": "GlorotUniform", "config": {"seed": null}}, "bias_initializer": {"class_name": "Zeros", "config": {}}, "kernel_regularizer": null, "bias_regularizer": null, "activity_regularizer": null, "kernel_constraint": null, "bias_constraint": null}, "name": "conv2d_28", "inbound_nodes": [[["tf.nn.relu_14", 0, 0, {}]]]}, {"class_name": "TFOpLambda", "config": {"name": "tf.math.multiply_28", "trainable": false, "dtype": "float32", "function": "math.multiply"}, "name": "tf.math.multiply_28", "inbound_nodes": [["_CONSTANT_VALUE", -1, 0.1666666716337204, {"y": ["conv2d_28", 0, 0], "name": null}]]}, {"class_name": "TFOpLambda", "config": {"name": "tf.__operators__.add_21", "trainable": false, "dtype": "float32", "function": "__operators__.add"}, "name": "tf.__operators__.add_21", "inbound_nodes": [["tf.math.multiply_28", 0, 0, {"y": 0.5, "name": null}]]}, {"class_name": "TFOpLambda", "config": {"name": "tf.clip_by_value_14", "trainable": false, "dtype": "float32", "function": "clip_by_value"}, "name": "tf.clip_by_value_14", "inbound_nodes": [["tf.__operators__.add_21", 0, 0, {"clip_value_min": 0, "clip_value_max": 1}]]}, {"class_name": "TFOpLambda", "config": {"name": "tf.math.multiply_29", "trainable": false, "dtype": "float32", "function": "math.multiply"}, "name": "tf.math.multiply_29", "inbound_nodes": [["tf.clip_by_value_14", 0, 0, {"y": ["tf.math.multiply_27", 0, 0], "name": null}]]}, {"class_name": "Conv2D", "config": {"name": "conv2d_29", "trainable": false, "dtype": "float32", "filters": 112, "kernel_size": [1, 1], "strides": [1, 1], "padding": "valid", "data_format": "channels_last", "dilation_rate": [1, 1], "groups": 1, "activation": "linear", "use_bias": true, "kernel_initializer": {"class_name": "GlorotUniform", "config": {"seed": null}}, "bias_initializer": {"class_name": "Zeros", "config": {}}, "kernel_regularizer": null, "bias_regularizer": null, "activity_regularizer": null, "kernel_constraint": null, "bias_constraint": null}, "name": "conv2d_29", "inbound_nodes": [[["tf.math.multiply_29", 0, 0, {}]]]}, {"class_name": "Conv2D", "config": {"name": "conv2d_30", "trainable": false, "dtype": "float32", "filters": 672, "kernel_size": [1, 1], "strides": [1, 1], "padding": "valid", "data_format": "channels_last", "dilation_rate": [1, 1], "groups": 1, "activation": "linear", "use_bias": true, "kernel_initializer": {"class_name": "GlorotUniform", "config": {"seed": null}}, "bias_initializer": {"class_name": "Zeros", "config": {}}, "kernel_regularizer": null, "bias_regularizer": null, "activity_regularizer": null, "kernel_constraint": null, "bias_constraint": null}, "name": "conv2d_30", "inbound_nodes": [[["conv2d_29", 0, 0, {}]]]}, {"class_name": "TFOpLambda", "config": {"name": "tf.math.multiply_30", "trainable": false, "dtype": "float32", "function": "math.multiply"}, "name": "tf.math.multiply_30", "inbound_nodes": [["_CONSTANT_VALUE", -1, 0.1666666716337204, {"y": ["conv2d_30", 0, 0], "name": null}]]}, {"class_name": "TFOpLambda", "config": {"name": "tf.__operators__.add_22", "trainable": false, "dtype": "float32", "function": "__operators__.add"}, "name": "tf.__operators__.add_22", "inbound_nodes": [["tf.math.multiply_30", 0, 0, {"y": 0.5, "name": null}]]}, {"class_name": "TFOpLambda", "config": {"name": "tf.clip_by_value_15", "trainable": false, "dtype": "float32", "function": "clip_by_value"}, "name": "tf.clip_by_value_15", "inbound_nodes": [["tf.__operators__.add_22", 0, 0, {"clip_value_min": 0, "clip_value_max": 1}]]}, {"class_name": "TFOpLambda", "config": {"name": "tf.math.multiply_31", "trainable": false, "dtype": "float32", "function": "math.multiply"}, "name": "tf.math.multiply_31", "inbound_nodes": [["conv2d_30", 0, 0, {"y": ["tf.clip_by_value_15", 0, 0], "name": null}]]}, {"class_name": "DepthwiseConv2D", "config": {"name": "depthwise_conv2d_11", "trainable": false, "dtype": "float32", "kernel_size": [3, 3], "strides": [1, 1], "padding": "same", "data_format": "channels_last", "dilation_rate": [1, 1], "groups": 1, "activation": "linear", "use_bias": true, "bias_initializer": {"class_name": "Zeros", "config": {}}, "bias_regularizer": null, "activity_regularizer": null, "bias_constraint": null, "depth_multiplier": 1, "depthwise_initializer": {"class_name": "GlorotUniform", "config": {"seed": null}}, "depthwise_regularizer": null, "depthwise_constraint": null}, "name": "depthwise_conv2d_11", "inbound_nodes": [[["tf.math.multiply_31", 0, 0, {}]]]}, {"class_name": "TFOpLambda", "config": {"name": "tf.math.multiply_32", "trainable": false, "dtype": "float32", "function": "math.multiply"}, "name": "tf.math.multiply_32", "inbound_nodes": [["_CONSTANT_VALUE", -1, 0.1666666716337204, {"y": ["depthwise_conv2d_11", 0, 0], "name": null}]]}, {"class_name": "TFOpLambda", "config": {"name": "tf.__operators__.add_23", "trainable": false, "dtype": "float32", "function": "__operators__.add"}, "name": "tf.__operators__.add_23", "inbound_nodes": [["tf.math.multiply_32", 0, 0, {"y": 0.5, "name": null}]]}, {"class_name": "TFOpLambda", "config": {"name": "tf.clip_by_value_16", "trainable": false, "dtype": "float32", "function": "clip_by_value"}, "name": "tf.clip_by_value_16", "inbound_nodes": [["tf.__operators__.add_23", 0, 0, {"clip_value_min": 0, "clip_value_max": 1}]]}, {"class_name": "TFOpLambda", "config": {"name": "tf.math.multiply_33", "trainable": false, "dtype": "float32", "function": "math.multiply"}, "name": "tf.math.multiply_33", "inbound_nodes": [["depthwise_conv2d_11", 0, 0, {"y": ["tf.clip_by_value_16", 0, 0], "name": null}]]}, {"class_name": "TFOpLambda", "config": {"name": "tf.math.reduce_mean_4", "trainable": false, "dtype": "float32", "function": "math.reduce_mean"}, "name": "tf.math.reduce_mean_4", "inbound_nodes": [["tf.math.multiply_33", 0, 0, {"axis": [1, 2], "keepdims": true}]]}, {"class_name": "Conv2D", "config": {"name": "conv2d_31", "trainable": false, "dtype": "float32", "filters": 168, "kernel_size": [1, 1], "strides": [1, 1], "padding": "valid", "data_format": "channels_last", "dilation_rate": [1, 1], "groups": 1, "activation": "linear", "use_bias": true, "kernel_initializer": {"class_name": "GlorotUniform", "config": {"seed": null}}, "bias_initializer": {"class_name": "Zeros", "config": {}}, "kernel_regularizer": null, "bias_regularizer": null, "activity_regularizer": null, "kernel_constraint": null, "bias_constraint": null}, "name": "conv2d_31", "inbound_nodes": [[["tf.math.reduce_mean_4", 0, 0, {}]]]}, {"class_name": "TFOpLambda", "config": {"name": "tf.nn.relu_15", "trainable": false, "dtype": "float32", "function": "nn.relu"}, "name": "tf.nn.relu_15", "inbound_nodes": [["conv2d_31", 0, 0, {"name": null}]]}, {"class_name": "Conv2D", "config": {"name": "conv2d_32", "trainable": false, "dtype": "float32", "filters": 672, "kernel_size": [1, 1], "strides": [1, 1], "padding": "valid", "data_format": "channels_last", "dilation_rate": [1, 1], "groups": 1, "activation": "linear", "use_bias": true, "kernel_initializer": {"class_name": "GlorotUniform", "config": {"seed": null}}, "bias_initializer": {"class_name": "Zeros", "config": {}}, "kernel_regularizer": null, "bias_regularizer": null, "activity_regularizer": null, "kernel_constraint": null, "bias_constraint": null}, "name": "conv2d_32", "inbound_nodes": [[["tf.nn.relu_15", 0, 0, {}]]]}, {"class_name": "TFOpLambda", "config": {"name": "tf.math.multiply_34", "trainable": false, "dtype": "float32", "function": "math.multiply"}, "name": "tf.math.multiply_34", "inbound_nodes": [["_CONSTANT_VALUE", -1, 0.1666666716337204, {"y": ["conv2d_32", 0, 0], "name": null}]]}, {"class_name": "TFOpLambda", "config": {"name": "tf.__operators__.add_24", "trainable": false, "dtype": "float32", "function": "__operators__.add"}, "name": "tf.__operators__.add_24", "inbound_nodes": [["tf.math.multiply_34", 0, 0, {"y": 0.5, "name": null}]]}, {"class_name": "TFOpLambda", "config": {"name": "tf.clip_by_value_17", "trainable": false, "dtype": "float32", "function": "clip_by_value"}, "name": "tf.clip_by_value_17", "inbound_nodes": [["tf.__operators__.add_24", 0, 0, {"clip_value_min": 0, "clip_value_max": 1}]]}, {"class_name": "TFOpLambda", "config": {"name": "tf.math.multiply_35", "trainable": false, "dtype": "float32", "function": "math.multiply"}, "name": "tf.math.multiply_35", "inbound_nodes": [["tf.clip_by_value_17", 0, 0, {"y": ["tf.math.multiply_33", 0, 0], "name": null}]]}, {"class_name": "Conv2D", "config": {"name": "conv2d_33", "trainable": false, "dtype": "float32", "filters": 112, "kernel_size": [1, 1], "strides": [1, 1], "padding": "valid", "data_format": "channels_last", "dilation_rate": [1, 1], "groups": 1, "activation": "linear", "use_bias": true, "kernel_initializer": {"class_name": "GlorotUniform", "config": {"seed": null}}, "bias_initializer": {"class_name": "Zeros", "config": {}}, "kernel_regularizer": null, "bias_regularizer": null, "activity_regularizer": null, "kernel_constraint": null, "bias_constraint": null}, "name": "conv2d_33", "inbound_nodes": [[["tf.math.multiply_35", 0, 0, {}]]]}, {"class_name": "TFOpLambda", "config": {"name": "tf.__operators__.add_25", "trainable": false, "dtype": "float32", "function": "__operators__.add"}, "name": "tf.__operators__.add_25", "inbound_nodes": [["conv2d_33", 0, 0, {"y": ["conv2d_29", 0, 0], "name": null}]]}, {"class_name": "Conv2D", "config": {"name": "conv2d_34", "trainable": false, "dtype": "float32", "filters": 672, "kernel_size": [1, 1], "strides": [1, 1], "padding": "valid", "data_format": "channels_last", "dilation_rate": [1, 1], "groups": 1, "activation": "linear", "use_bias": true, "kernel_initializer": {"class_name": "GlorotUniform", "config": {"seed": null}}, "bias_initializer": {"class_name": "Zeros", "config": {}}, "kernel_regularizer": null, "bias_regularizer": null, "activity_regularizer": null, "kernel_constraint": null, "bias_constraint": null}, "name": "conv2d_34", "inbound_nodes": [[["tf.__operators__.add_25", 0, 0, {}]]]}, {"class_name": "TFOpLambda", "config": {"name": "tf.math.multiply_36", "trainable": false, "dtype": "float32", "function": "math.multiply"}, "name": "tf.math.multiply_36", "inbound_nodes": [["_CONSTANT_VALUE", -1, 0.1666666716337204, {"y": ["conv2d_34", 0, 0], "name": null}]]}, {"class_name": "TFOpLambda", "config": {"name": "tf.__operators__.add_26", "trainable": false, "dtype": "float32", "function": "__operators__.add"}, "name": "tf.__operators__.add_26", "inbound_nodes": [["tf.math.multiply_36", 0, 0, {"y": 0.5, "name": null}]]}, {"class_name": "TFOpLambda", "config": {"name": "tf.clip_by_value_18", "trainable": false, "dtype": "float32", "function": "clip_by_value"}, "name": "tf.clip_by_value_18", "inbound_nodes": [["tf.__operators__.add_26", 0, 0, {"clip_value_min": 0, "clip_value_max": 1}]]}, {"class_name": "TFOpLambda", "config": {"name": "tf.math.multiply_37", "trainable": false, "dtype": "float32", "function": "math.multiply"}, "name": "tf.math.multiply_37", "inbound_nodes": [["conv2d_34", 0, 0, {"y": ["tf.clip_by_value_18", 0, 0], "name": null}]]}, {"class_name": "ZeroPadding2D", "config": {"name": "zero_padding2d_6", "trainable": false, "dtype": "float32", "padding": [[2, 2], [2, 2]], "data_format": "channels_last"}, "name": "zero_padding2d_6", "inbound_nodes": [[["tf.math.multiply_37", 0, 0, {}]]]}, {"class_name": "DepthwiseConv2D", "config": {"name": "depthwise_conv2d_12", "trainable": false, "dtype": "float32", "kernel_size": [5, 5], "strides": [2, 2], "padding": "valid", "data_format": "channels_last", "dilation_rate": [1, 1], "groups": 1, "activation": "linear", "use_bias": true, "bias_initializer": {"class_name": "Zeros", "config": {}}, "bias_regularizer": null, "activity_regularizer": null, "bias_constraint": null, "depth_multiplier": 1, "depthwise_initializer": {"class_name": "GlorotUniform", "config": {"seed": null}}, "depthwise_regularizer": null, "depthwise_constraint": null}, "name": "depthwise_conv2d_12", "inbound_nodes": [[["zero_padding2d_6", 0, 0, {}]]]}, {"class_name": "TFOpLambda", "config": {"name": "tf.math.multiply_38", "trainable": false, "dtype": "float32", "function": "math.multiply"}, "name": "tf.math.multiply_38", "inbound_nodes": [["_CONSTANT_VALUE", -1, 0.1666666716337204, {"y": ["depthwise_conv2d_12", 0, 0], "name": null}]]}, {"class_name": "TFOpLambda", "config": {"name": "tf.__operators__.add_27", "trainable": false, "dtype": "float32", "function": "__operators__.add"}, "name": "tf.__operators__.add_27", "inbound_nodes": [["tf.math.multiply_38", 0, 0, {"y": 0.5, "name": null}]]}, {"class_name": "TFOpLambda", "config": {"name": "tf.clip_by_value_19", "trainable": false, "dtype": "float32", "function": "clip_by_value"}, "name": "tf.clip_by_value_19", "inbound_nodes": [["tf.__operators__.add_27", 0, 0, {"clip_value_min": 0, "clip_value_max": 1}]]}, {"class_name": "TFOpLambda", "config": {"name": "tf.math.multiply_39", "trainable": false, "dtype": "float32", "function": "math.multiply"}, "name": "tf.math.multiply_39", "inbound_nodes": [["depthwise_conv2d_12", 0, 0, {"y": ["tf.clip_by_value_19", 0, 0], "name": null}]]}, {"class_name": "TFOpLambda", "config": {"name": "tf.math.reduce_mean_5", "trainable": false, "dtype": "float32", "function": "math.reduce_mean"}, "name": "tf.math.reduce_mean_5", "inbound_nodes": [["tf.math.multiply_39", 0, 0, {"axis": [1, 2], "keepdims": true}]]}, {"class_name": "Conv2D", "config": {"name": "conv2d_35", "trainable": false, "dtype": "float32", "filters": 168, "kernel_size": [1, 1], "strides": [1, 1], "padding": "valid", "data_format": "channels_last", "dilation_rate": [1, 1], "groups": 1, "activation": "linear", "use_bias": true, "kernel_initializer": {"class_name": "GlorotUniform", "config": {"seed": null}}, "bias_initializer": {"class_name": "Zeros", "config": {}}, "kernel_regularizer": null, "bias_regularizer": null, "activity_regularizer": null, "kernel_constraint": null, "bias_constraint": null}, "name": "conv2d_35", "inbound_nodes": [[["tf.math.reduce_mean_5", 0, 0, {}]]]}, {"class_name": "TFOpLambda", "config": {"name": "tf.nn.relu_16", "trainable": false, "dtype": "float32", "function": "nn.relu"}, "name": "tf.nn.relu_16", "inbound_nodes": [["conv2d_35", 0, 0, {"name": null}]]}, {"class_name": "Conv2D", "config": {"name": "conv2d_36", "trainable": false, "dtype": "float32", "filters": 672, "kernel_size": [1, 1], "strides": [1, 1], "padding": "valid", "data_format": "channels_last", "dilation_rate": [1, 1], "groups": 1, "activation": "linear", "use_bias": true, "kernel_initializer": {"class_name": "GlorotUniform", "config": {"seed": null}}, "bias_initializer": {"class_name": "Zeros", "config": {}}, "kernel_regularizer": null, "bias_regularizer": null, "activity_regularizer": null, "kernel_constraint": null, "bias_constraint": null}, "name": "conv2d_36", "inbound_nodes": [[["tf.nn.relu_16", 0, 0, {}]]]}, {"class_name": "TFOpLambda", "config": {"name": "tf.math.multiply_40", "trainable": false, "dtype": "float32", "function": "math.multiply"}, "name": "tf.math.multiply_40", "inbound_nodes": [["_CONSTANT_VALUE", -1, 0.1666666716337204, {"y": ["conv2d_36", 0, 0], "name": null}]]}, {"class_name": "TFOpLambda", "config": {"name": "tf.__operators__.add_28", "trainable": false, "dtype": "float32", "function": "__operators__.add"}, "name": "tf.__operators__.add_28", "inbound_nodes": [["tf.math.multiply_40", 0, 0, {"y": 0.5, "name": null}]]}, {"class_name": "TFOpLambda", "config": {"name": "tf.clip_by_value_20", "trainable": false, "dtype": "float32", "function": "clip_by_value"}, "name": "tf.clip_by_value_20", "inbound_nodes": [["tf.__operators__.add_28", 0, 0, {"clip_value_min": 0, "clip_value_max": 1}]]}, {"class_name": "TFOpLambda", "config": {"name": "tf.math.multiply_41", "trainable": false, "dtype": "float32", "function": "math.multiply"}, "name": "tf.math.multiply_41", "inbound_nodes": [["tf.clip_by_value_20", 0, 0, {"y": ["tf.math.multiply_39", 0, 0], "name": null}]]}, {"class_name": "Conv2D", "config": {"name": "conv2d_37", "trainable": false, "dtype": "float32", "filters": 160, "kernel_size": [1, 1], "strides": [1, 1], "padding": "valid", "data_format": "channels_last", "dilation_rate": [1, 1], "groups": 1, "activation": "linear", "use_bias": true, "kernel_initializer": {"class_name": "GlorotUniform", "config": {"seed": null}}, "bias_initializer": {"class_name": "Zeros", "config": {}}, "kernel_regularizer": null, "bias_regularizer": null, "activity_regularizer": null, "kernel_constraint": null, "bias_constraint": null}, "name": "conv2d_37", "inbound_nodes": [[["tf.math.multiply_41", 0, 0, {}]]]}, {"class_name": "Conv2D", "config": {"name": "conv2d_38", "trainable": false, "dtype": "float32", "filters": 960, "kernel_size": [1, 1], "strides": [1, 1], "padding": "valid", "data_format": "channels_last", "dilation_rate": [1, 1], "groups": 1, "activation": "linear", "use_bias": true, "kernel_initializer": {"class_name": "GlorotUniform", "config": {"seed": null}}, "bias_initializer": {"class_name": "Zeros", "config": {}}, "kernel_regularizer": null, "bias_regularizer": null, "activity_regularizer": null, "kernel_constraint": null, "bias_constraint": null}, "name": "conv2d_38", "inbound_nodes": [[["conv2d_37", 0, 0, {}]]]}, {"class_name": "TFOpLambda", "config": {"name": "tf.math.multiply_42", "trainable": false, "dtype": "float32", "function": "math.multiply"}, "name": "tf.math.multiply_42", "inbound_nodes": [["_CONSTANT_VALUE", -1, 0.1666666716337204, {"y": ["conv2d_38", 0, 0], "name": null}]]}, {"class_name": "TFOpLambda", "config": {"name": "tf.__operators__.add_29", "trainable": false, "dtype": "float32", "function": "__operators__.add"}, "name": "tf.__operators__.add_29", "inbound_nodes": [["tf.math.multiply_42", 0, 0, {"y": 0.5, "name": null}]]}, {"class_name": "TFOpLambda", "config": {"name": "tf.clip_by_value_21", "trainable": false, "dtype": "float32", "function": "clip_by_value"}, "name": "tf.clip_by_value_21", "inbound_nodes": [["tf.__operators__.add_29", 0, 0, {"clip_value_min": 0, "clip_value_max": 1}]]}, {"class_name": "TFOpLambda", "config": {"name": "tf.math.multiply_43", "trainable": false, "dtype": "float32", "function": "math.multiply"}, "name": "tf.math.multiply_43", "inbound_nodes": [["conv2d_38", 0, 0, {"y": ["tf.clip_by_value_21", 0, 0], "name": null}]]}, {"class_name": "ZeroPadding2D", "config": {"name": "zero_padding2d_7", "trainable": false, "dtype": "float32", "padding": [[2, 2], [2, 2]], "data_format": "channels_last"}, "name": "zero_padding2d_7", "inbound_nodes": [[["tf.math.multiply_43", 0, 0, {}]]]}, {"class_name": "DepthwiseConv2D", "config": {"name": "depthwise_conv2d_13", "trainable": false, "dtype": "float32", "kernel_size": [5, 5], "strides": [1, 1], "padding": "valid", "data_format": "channels_last", "dilation_rate": [1, 1], "groups": 1, "activation": "linear", "use_bias": true, "bias_initializer": {"class_name": "Zeros", "config": {}}, "bias_regularizer": null, "activity_regularizer": null, "bias_constraint": null, "depth_multiplier": 1, "depthwise_initializer": {"class_name": "GlorotUniform", "config": {"seed": null}}, "depthwise_regularizer": null, "depthwise_constraint": null}, "name": "depthwise_conv2d_13", "inbound_nodes": [[["zero_padding2d_7", 0, 0, {}]]]}, {"class_name": "TFOpLambda", "config": {"name": "tf.math.multiply_44", "trainable": false, "dtype": "float32", "function": "math.multiply"}, "name": "tf.math.multiply_44", "inbound_nodes": [["_CONSTANT_VALUE", -1, 0.1666666716337204, {"y": ["depthwise_conv2d_13", 0, 0], "name": null}]]}, {"class_name": "TFOpLambda", "config": {"name": "tf.__operators__.add_30", "trainable": false, "dtype": "float32", "function": "__operators__.add"}, "name": "tf.__operators__.add_30", "inbound_nodes": [["tf.math.multiply_44", 0, 0, {"y": 0.5, "name": null}]]}, {"class_name": "TFOpLambda", "config": {"name": "tf.clip_by_value_22", "trainable": false, "dtype": "float32", "function": "clip_by_value"}, "name": "tf.clip_by_value_22", "inbound_nodes": [["tf.__operators__.add_30", 0, 0, {"clip_value_min": 0, "clip_value_max": 1}]]}, {"class_name": "TFOpLambda", "config": {"name": "tf.math.multiply_45", "trainable": false, "dtype": "float32", "function": "math.multiply"}, "name": "tf.math.multiply_45", "inbound_nodes": [["depthwise_conv2d_13", 0, 0, {"y": ["tf.clip_by_value_22", 0, 0], "name": null}]]}, {"class_name": "TFOpLambda", "config": {"name": "tf.math.reduce_mean_6", "trainable": false, "dtype": "float32", "function": "math.reduce_mean"}, "name": "tf.math.reduce_mean_6", "inbound_nodes": [["tf.math.multiply_45", 0, 0, {"axis": [1, 2], "keepdims": true}]]}, {"class_name": "Conv2D", "config": {"name": "conv2d_39", "trainable": false, "dtype": "float32", "filters": 240, "kernel_size": [1, 1], "strides": [1, 1], "padding": "valid", "data_format": "channels_last", "dilation_rate": [1, 1], "groups": 1, "activation": "linear", "use_bias": true, "kernel_initializer": {"class_name": "GlorotUniform", "config": {"seed": null}}, "bias_initializer": {"class_name": "Zeros", "config": {}}, "kernel_regularizer": null, "bias_regularizer": null, "activity_regularizer": null, "kernel_constraint": null, "bias_constraint": null}, "name": "conv2d_39", "inbound_nodes": [[["tf.math.reduce_mean_6", 0, 0, {}]]]}, {"class_name": "TFOpLambda", "config": {"name": "tf.nn.relu_17", "trainable": false, "dtype": "float32", "function": "nn.relu"}, "name": "tf.nn.relu_17", "inbound_nodes": [["conv2d_39", 0, 0, {"name": null}]]}, {"class_name": "Conv2D", "config": {"name": "conv2d_40", "trainable": false, "dtype": "float32", "filters": 960, "kernel_size": [1, 1], "strides": [1, 1], "padding": "valid", "data_format": "channels_last", "dilation_rate": [1, 1], "groups": 1, "activation": "linear", "use_bias": true, "kernel_initializer": {"class_name": "GlorotUniform", "config": {"seed": null}}, "bias_initializer": {"class_name": "Zeros", "config": {}}, "kernel_regularizer": null, "bias_regularizer": null, "activity_regularizer": null, "kernel_constraint": null, "bias_constraint": null}, "name": "conv2d_40", "inbound_nodes": [[["tf.nn.relu_17", 0, 0, {}]]]}, {"class_name": "TFOpLambda", "config": {"name": "tf.math.multiply_46", "trainable": false, "dtype": "float32", "function": "math.multiply"}, "name": "tf.math.multiply_46", "inbound_nodes": [["_CONSTANT_VALUE", -1, 0.1666666716337204, {"y": ["conv2d_40", 0, 0], "name": null}]]}, {"class_name": "TFOpLambda", "config": {"name": "tf.__operators__.add_31", "trainable": false, "dtype": "float32", "function": "__operators__.add"}, "name": "tf.__operators__.add_31", "inbound_nodes": [["tf.math.multiply_46", 0, 0, {"y": 0.5, "name": null}]]}, {"class_name": "TFOpLambda", "config": {"name": "tf.clip_by_value_23", "trainable": false, "dtype": "float32", "function": "clip_by_value"}, "name": "tf.clip_by_value_23", "inbound_nodes": [["tf.__operators__.add_31", 0, 0, {"clip_value_min": 0, "clip_value_max": 1}]]}, {"class_name": "TFOpLambda", "config": {"name": "tf.math.multiply_47", "trainable": false, "dtype": "float32", "function": "math.multiply"}, "name": "tf.math.multiply_47", "inbound_nodes": [["tf.clip_by_value_23", 0, 0, {"y": ["tf.math.multiply_45", 0, 0], "name": null}]]}, {"class_name": "Conv2D", "config": {"name": "conv2d_41", "trainable": false, "dtype": "float32", "filters": 160, "kernel_size": [1, 1], "strides": [1, 1], "padding": "valid", "data_format": "channels_last", "dilation_rate": [1, 1], "groups": 1, "activation": "linear", "use_bias": true, "kernel_initializer": {"class_name": "GlorotUniform", "config": {"seed": null}}, "bias_initializer": {"class_name": "Zeros", "config": {}}, "kernel_regularizer": null, "bias_regularizer": null, "activity_regularizer": null, "kernel_constraint": null, "bias_constraint": null}, "name": "conv2d_41", "inbound_nodes": [[["tf.math.multiply_47", 0, 0, {}]]]}, {"class_name": "TFOpLambda", "config": {"name": "tf.__operators__.add_32", "trainable": false, "dtype": "float32", "function": "__operators__.add"}, "name": "tf.__operators__.add_32", "inbound_nodes": [["conv2d_41", 0, 0, {"y": ["conv2d_37", 0, 0], "name": null}]]}, {"class_name": "Conv2D", "config": {"name": "conv2d_42", "trainable": false, "dtype": "float32", "filters": 960, "kernel_size": [1, 1], "strides": [1, 1], "padding": "valid", "data_format": "channels_last", "dilation_rate": [1, 1], "groups": 1, "activation": "linear", "use_bias": true, "kernel_initializer": {"class_name": "GlorotUniform", "config": {"seed": null}}, "bias_initializer": {"class_name": "Zeros", "config": {}}, "kernel_regularizer": null, "bias_regularizer": null, "activity_regularizer": null, "kernel_constraint": null, "bias_constraint": null}, "name": "conv2d_42", "inbound_nodes": [[["tf.__operators__.add_32", 0, 0, {}]]]}, {"class_name": "TFOpLambda", "config": {"name": "tf.math.multiply_48", "trainable": false, "dtype": "float32", "function": "math.multiply"}, "name": "tf.math.multiply_48", "inbound_nodes": [["_CONSTANT_VALUE", -1, 0.1666666716337204, {"y": ["conv2d_42", 0, 0], "name": null}]]}, {"class_name": "TFOpLambda", "config": {"name": "tf.__operators__.add_33", "trainable": false, "dtype": "float32", "function": "__operators__.add"}, "name": "tf.__operators__.add_33", "inbound_nodes": [["tf.math.multiply_48", 0, 0, {"y": 0.5, "name": null}]]}, {"class_name": "TFOpLambda", "config": {"name": "tf.clip_by_value_24", "trainable": false, "dtype": "float32", "function": "clip_by_value"}, "name": "tf.clip_by_value_24", "inbound_nodes": [["tf.__operators__.add_33", 0, 0, {"clip_value_min": 0, "clip_value_max": 1}]]}, {"class_name": "TFOpLambda", "config": {"name": "tf.math.multiply_49", "trainable": false, "dtype": "float32", "function": "math.multiply"}, "name": "tf.math.multiply_49", "inbound_nodes": [["conv2d_42", 0, 0, {"y": ["tf.clip_by_value_24", 0, 0], "name": null}]]}, {"class_name": "ZeroPadding2D", "config": {"name": "zero_padding2d_8", "trainable": false, "dtype": "float32", "padding": [[2, 2], [2, 2]], "data_format": "channels_last"}, "name": "zero_padding2d_8", "inbound_nodes": [[["tf.math.multiply_49", 0, 0, {}]]]}, {"class_name": "DepthwiseConv2D", "config": {"name": "depthwise_conv2d_14", "trainable": false, "dtype": "float32", "kernel_size": [5, 5], "strides": [1, 1], "padding": "valid", "data_format": "channels_last", "dilation_rate": [1, 1], "groups": 1, "activation": "linear", "use_bias": true, "bias_initializer": {"class_name": "Zeros", "config": {}}, "bias_regularizer": null, "activity_regularizer": null, "bias_constraint": null, "depth_multiplier": 1, "depthwise_initializer": {"class_name": "GlorotUniform", "config": {"seed": null}}, "depthwise_regularizer": null, "depthwise_constraint": null}, "name": "depthwise_conv2d_14", "inbound_nodes": [[["zero_padding2d_8", 0, 0, {}]]]}, {"class_name": "TFOpLambda", "config": {"name": "tf.math.multiply_50", "trainable": false, "dtype": "float32", "function": "math.multiply"}, "name": "tf.math.multiply_50", "inbound_nodes": [["_CONSTANT_VALUE", -1, 0.1666666716337204, {"y": ["depthwise_conv2d_14", 0, 0], "name": null}]]}, {"class_name": "TFOpLambda", "config": {"name": "tf.__operators__.add_34", "trainable": false, "dtype": "float32", "function": "__operators__.add"}, "name": "tf.__operators__.add_34", "inbound_nodes": [["tf.math.multiply_50", 0, 0, {"y": 0.5, "name": null}]]}, {"class_name": "TFOpLambda", "config": {"name": "tf.clip_by_value_25", "trainable": false, "dtype": "float32", "function": "clip_by_value"}, "name": "tf.clip_by_value_25", "inbound_nodes": [["tf.__operators__.add_34", 0, 0, {"clip_value_min": 0, "clip_value_max": 1}]]}, {"class_name": "TFOpLambda", "config": {"name": "tf.math.multiply_51", "trainable": false, "dtype": "float32", "function": "math.multiply"}, "name": "tf.math.multiply_51", "inbound_nodes": [["depthwise_conv2d_14", 0, 0, {"y": ["tf.clip_by_value_25", 0, 0], "name": null}]]}, {"class_name": "TFOpLambda", "config": {"name": "tf.math.reduce_mean_7", "trainable": false, "dtype": "float32", "function": "math.reduce_mean"}, "name": "tf.math.reduce_mean_7", "inbound_nodes": [["tf.math.multiply_51", 0, 0, {"axis": [1, 2], "keepdims": true}]]}, {"class_name": "Conv2D", "config": {"name": "conv2d_43", "trainable": false, "dtype": "float32", "filters": 240, "kernel_size": [1, 1], "strides": [1, 1], "padding": "valid", "data_format": "channels_last", "dilation_rate": [1, 1], "groups": 1, "activation": "linear", "use_bias": true, "kernel_initializer": {"class_name": "GlorotUniform", "config": {"seed": null}}, "bias_initializer": {"class_name": "Zeros", "config": {}}, "kernel_regularizer": null, "bias_regularizer": null, "activity_regularizer": null, "kernel_constraint": null, "bias_constraint": null}, "name": "conv2d_43", "inbound_nodes": [[["tf.math.reduce_mean_7", 0, 0, {}]]]}, {"class_name": "TFOpLambda", "config": {"name": "tf.nn.relu_18", "trainable": false, "dtype": "float32", "function": "nn.relu"}, "name": "tf.nn.relu_18", "inbound_nodes": [["conv2d_43", 0, 0, {"name": null}]]}, {"class_name": "Conv2D", "config": {"name": "conv2d_44", "trainable": false, "dtype": "float32", "filters": 960, "kernel_size": [1, 1], "strides": [1, 1], "padding": "valid", "data_format": "channels_last", "dilation_rate": [1, 1], "groups": 1, "activation": "linear", "use_bias": true, "kernel_initializer": {"class_name": "GlorotUniform", "config": {"seed": null}}, "bias_initializer": {"class_name": "Zeros", "config": {}}, "kernel_regularizer": null, "bias_regularizer": null, "activity_regularizer": null, "kernel_constraint": null, "bias_constraint": null}, "name": "conv2d_44", "inbound_nodes": [[["tf.nn.relu_18", 0, 0, {}]]]}, {"class_name": "TFOpLambda", "config": {"name": "tf.math.multiply_52", "trainable": false, "dtype": "float32", "function": "math.multiply"}, "name": "tf.math.multiply_52", "inbound_nodes": [["_CONSTANT_VALUE", -1, 0.1666666716337204, {"y": ["conv2d_44", 0, 0], "name": null}]]}, {"class_name": "TFOpLambda", "config": {"name": "tf.__operators__.add_35", "trainable": false, "dtype": "float32", "function": "__operators__.add"}, "name": "tf.__operators__.add_35", "inbound_nodes": [["tf.math.multiply_52", 0, 0, {"y": 0.5, "name": null}]]}, {"class_name": "TFOpLambda", "config": {"name": "tf.clip_by_value_26", "trainable": false, "dtype": "float32", "function": "clip_by_value"}, "name": "tf.clip_by_value_26", "inbound_nodes": [["tf.__operators__.add_35", 0, 0, {"clip_value_min": 0, "clip_value_max": 1}]]}, {"class_name": "TFOpLambda", "config": {"name": "tf.math.multiply_53", "trainable": false, "dtype": "float32", "function": "math.multiply"}, "name": "tf.math.multiply_53", "inbound_nodes": [["tf.clip_by_value_26", 0, 0, {"y": ["tf.math.multiply_51", 0, 0], "name": null}]]}, {"class_name": "Conv2D", "config": {"name": "conv2d_45", "trainable": false, "dtype": "float32", "filters": 160, "kernel_size": [1, 1], "strides": [1, 1], "padding": "valid", "data_format": "channels_last", "dilation_rate": [1, 1], "groups": 1, "activation": "linear", "use_bias": true, "kernel_initializer": {"class_name": "GlorotUniform", "config": {"seed": null}}, "bias_initializer": {"class_name": "Zeros", "config": {}}, "kernel_regularizer": null, "bias_regularizer": null, "activity_regularizer": null, "kernel_constraint": null, "bias_constraint": null}, "name": "conv2d_45", "inbound_nodes": [[["tf.math.multiply_53", 0, 0, {}]]]}, {"class_name": "TFOpLambda", "config": {"name": "tf.__operators__.add_36", "trainable": false, "dtype": "float32", "function": "__operators__.add"}, "name": "tf.__operators__.add_36", "inbound_nodes": [["conv2d_45", 0, 0, {"y": ["tf.__operators__.add_32", 0, 0], "name": null}]]}, {"class_name": "Conv2D", "config": {"name": "conv2d_46", "trainable": false, "dtype": "float32", "filters": 960, "kernel_size": [1, 1], "strides": [1, 1], "padding": "valid", "data_format": "channels_last", "dilation_rate": [1, 1], "groups": 1, "activation": "linear", "use_bias": true, "kernel_initializer": {"class_name": "GlorotUniform", "config": {"seed": null}}, "bias_initializer": {"class_name": "Zeros", "config": {}}, "kernel_regularizer": null, "bias_regularizer": null, "activity_regularizer": null, "kernel_constraint": null, "bias_constraint": null}, "name": "conv2d_46", "inbound_nodes": [[["tf.__operators__.add_36", 0, 0, {}]]]}, {"class_name": "TFOpLambda", "config": {"name": "tf.math.multiply_54", "trainable": false, "dtype": "float32", "function": "math.multiply"}, "name": "tf.math.multiply_54", "inbound_nodes": [["_CONSTANT_VALUE", -1, 0.1666666716337204, {"y": ["conv2d_46", 0, 0], "name": null}]]}, {"class_name": "TFOpLambda", "config": {"name": "tf.__operators__.add_37", "trainable": false, "dtype": "float32", "function": "__operators__.add"}, "name": "tf.__operators__.add_37", "inbound_nodes": [["tf.math.multiply_54", 0, 0, {"y": 0.5, "name": null}]]}, {"class_name": "TFOpLambda", "config": {"name": "tf.clip_by_value_27", "trainable": false, "dtype": "float32", "function": "clip_by_value"}, "name": "tf.clip_by_value_27", "inbound_nodes": [["tf.__operators__.add_37", 0, 0, {"clip_value_min": 0, "clip_value_max": 1}]]}, {"class_name": "TFOpLambda", "config": {"name": "tf.math.multiply_55", "trainable": false, "dtype": "float32", "function": "math.multiply"}, "name": "tf.math.multiply_55", "inbound_nodes": [["conv2d_46", 0, 0, {"y": ["tf.clip_by_value_27", 0, 0], "name": null}]]}, {"class_name": "TFOpLambda", "config": {"name": "tf.math.reduce_mean_8", "trainable": false, "dtype": "float32", "function": "math.reduce_mean"}, "name": "tf.math.reduce_mean_8", "inbound_nodes": [["tf.math.multiply_55", 0, 0, {"axis": [1, 2], "keepdims": true}]]}, {"class_name": "Flatten", "config": {"name": "flatten", "trainable": false, "dtype": "float32", "data_format": "channels_last"}, "name": "flatten", "inbound_nodes": [[["tf.math.reduce_mean_8", 0, 0, {}]]]}, {"class_name": "Dense", "config": {"name": "dense", "trainable": false, "dtype": "float32", "units": 1280, "activation": "linear", "use_bias": true, "kernel_initializer": {"class_name": "GlorotUniform", "config": {"seed": null}}, "bias_initializer": {"class_name": "Zeros", "config": {}}, "kernel_regularizer": null, "bias_regularizer": null, "activity_regularizer": null, "kernel_constraint": null, "bias_constraint": null}, "name": "dense", "inbound_nodes": [[["flatten", 0, 0, {}]]]}, {"class_name": "TFOpLambda", "config": {"name": "tf.math.multiply_56", "trainable": false, "dtype": "float32", "function": "math.multiply"}, "name": "tf.math.multiply_56", "inbound_nodes": [["_CONSTANT_VALUE", -1, 0.1666666716337204, {"y": ["dense", 0, 0], "name": null}]]}, {"class_name": "TFOpLambda", "config": {"name": "tf.__operators__.add_38", "trainable": false, "dtype": "float32", "function": "__operators__.add"}, "name": "tf.__operators__.add_38", "inbound_nodes": [["tf.math.multiply_56", 0, 0, {"y": 0.5, "name": null}]]}, {"class_name": "TFOpLambda", "config": {"name": "tf.clip_by_value_28", "trainable": false, "dtype": "float32", "function": "clip_by_value"}, "name": "tf.clip_by_value_28", "inbound_nodes": [["tf.__operators__.add_38", 0, 0, {"clip_value_min": 0, "clip_value_max": 1}]]}, {"class_name": "TFOpLambda", "config": {"name": "tf.math.multiply_57", "trainable": false, "dtype": "float32", "function": "math.multiply"}, "name": "tf.math.multiply_57", "inbound_nodes": [["dense", 0, 0, {"y": ["tf.clip_by_value_28", 0, 0], "name": null}]]}, {"class_name": "Dense", "config": {"name": "dense_1", "trainable": false, "dtype": "float32", "units": 1081, "activation": "linear", "use_bias": true, "kernel_initializer": {"class_name": "GlorotUniform", "config": {"seed": null}}, "bias_initializer": {"class_name": "Zeros", "config": {}}, "kernel_regularizer": null, "bias_regularizer": null, "activity_regularizer": null, "kernel_constraint": null, "bias_constraint": null}, "name": "dense_1", "inbound_nodes": [[["tf.math.multiply_57", 0, 0, {}]]]}], "input_layers": [["input_1", 0, 0]], "output_layers": [["dense_1", 0, 0]]}}}, "weightsManifest": [{"paths": ["group1-shard1of6.bin", "group1-shard2of6.bin", "group1-shard3of6.bin", "group1-shard4of6.bin", "group1-shard5of6.bin", "group1-shard6of6.bin"], "weights": [{"name": "conv2d/kernel", "shape": [3, 3, 3, 16], "dtype": "float32"}, {"name": "conv2d/bias", "shape": [16], "dtype": "float32"}, {"name": "conv2d_1/kernel", "shape": [1, 1, 16, 16], "dtype": "float32"}, {"name": "conv2d_1/bias", "shape": [16], "dtype": "float32"}, {"name": "conv2d_10/kernel", "shape": [1, 1, 40, 120], "dtype": "float32"}, {"name": "conv2d_10/bias", "shape": [120], "dtype": "float32"}, {"name": "conv2d_11/kernel", "shape": [1, 1, 120, 32], "dtype": "float32"}, {"name": "conv2d_11/bias", "shape": [32], "dtype": "float32"}, {"name": "conv2d_12/kernel", "shape": [1, 1, 32, 120], "dtype": "float32"}, {"name": "conv2d_12/bias", "shape": [120], "dtype": "float32"}, {"name": "conv2d_13/kernel", "shape": [1, 1, 120, 40], "dtype": "float32"}, {"name": "conv2d_13/bias", "shape": [40], "dtype": "float32"}, {"name": "conv2d_14/kernel", "shape": [1, 1, 40, 120], "dtype": "float32"}, {"name": "conv2d_14/bias", "shape": [120], "dtype": "float32"}, {"name": "conv2d_15/kernel", "shape": [1, 1, 120, 32], "dtype": "float32"}, {"name": "conv2d_15/bias", "shape": [32], "dtype": "float32"}, {"name": "conv2d_16/kernel", "shape": [1, 1, 32, 120], "dtype": "float32"}, {"name": "conv2d_16/bias", "shape": [120], "dtype": "float32"}, {"name": "conv2d_17/kernel", "shape": [1, 1, 120, 40], "dtype": "float32"}, {"name": "conv2d_17/bias", "shape": [40], "dtype": "float32"}, {"name": "conv2d_18/kernel", "shape": [1, 1, 40, 240], "dtype": "float32"}, {"name": "conv2d_18/bias", "shape": [240], "dtype": "float32"}, {"name": "conv2d_19/kernel", "shape": [1, 1, 240, 80], "dtype": "float32"}, {"name": "conv2d_19/bias", "shape": [80], "dtype": "float32"}, {"name": "conv2d_2/kernel", "shape": [1, 1, 16, 64], "dtype": "float32"}, {"name": "conv2d_2/bias", "shape": [64], "dtype": "float32"}, {"name": "conv2d_20/kernel", "shape": [1, 1, 80, 200], "dtype": "float32"}, {"name": "conv2d_20/bias", "shape": [200], "dtype": "float32"}, {"name": "conv2d_21/kernel", "shape": [1, 1, 200, 80], "dtype": "float32"}, {"name": "conv2d_21/bias", "shape": [80], "dtype": "float32"}, {"name": "conv2d_22/kernel", "shape": [1, 1, 80, 184], "dtype": "float32"}, {"name": "conv2d_22/bias", "shape": [184], "dtype": "float32"}, {"name": "conv2d_23/kernel", "shape": [1, 1, 184, 80], "dtype": "float32"}, {"name": "conv2d_23/bias", "shape": [80], "dtype": "float32"}, {"name": "conv2d_24/kernel", "shape": [1, 1, 80, 184], "dtype": "float32"}, {"name": "conv2d_24/bias", "shape": [184], "dtype": "float32"}, {"name": "conv2d_25/kernel", "shape": [1, 1, 184, 80], "dtype": "float32"}, {"name": "conv2d_25/bias", "shape": [80], "dtype": "float32"}, {"name": "conv2d_26/kernel", "shape": [1, 1, 80, 480], "dtype": "float32"}, {"name": "conv2d_26/bias", "shape": [480], "dtype": "float32"}, {"name": "conv2d_27/kernel", "shape": [1, 1, 480, 120], "dtype": "float32"}, {"name": "conv2d_27/bias", "shape": [120], "dtype": "float32"}, {"name": "conv2d_28/kernel", "shape": [1, 1, 120, 480], "dtype": "float32"}, {"name": "conv2d_28/bias", "shape": [480], "dtype": "float32"}, {"name": "conv2d_29/kernel", "shape": [1, 1, 480, 112], "dtype": "float32"}, {"name": "conv2d_29/bias", "shape": [112], "dtype": "float32"}, {"name": "conv2d_3/kernel", "shape": [1, 1, 64, 24], "dtype": "float32"}, {"name": "conv2d_3/bias", "shape": [24], "dtype": "float32"}, {"name": "conv2d_30/kernel", "shape": [1, 1, 112, 672], "dtype": "float32"}, {"name": "conv2d_30/bias", "shape": [672], "dtype": "float32"}, {"name": "conv2d_31/kernel", "shape": [1, 1, 672, 168], "dtype": "float32"}, {"name": "conv2d_31/bias", "shape": [168], "dtype": "float32"}, {"name": "conv2d_32/kernel", "shape": [1, 1, 168, 672], "dtype": "float32"}, {"name": "conv2d_32/bias", "shape": [672], "dtype": "float32"}, {"name": "conv2d_33/kernel", "shape": [1, 1, 672, 112], "dtype": "float32"}, {"name": "conv2d_33/bias", "shape": [112], "dtype": "float32"}, {"name": "conv2d_34/kernel", "shape": [1, 1, 112, 672], "dtype": "float32"}, {"name": "conv2d_34/bias", "shape": [672], "dtype": "float32"}, {"name": "conv2d_35/kernel", "shape": [1, 1, 672, 168], "dtype": "float32"}, {"name": "conv2d_35/bias", "shape": [168], "dtype": "float32"}, {"name": "conv2d_36/kernel", "shape": [1, 1, 168, 672], "dtype": "float32"}, {"name": "conv2d_36/bias", "shape": [672], "dtype": "float32"}, {"name": "conv2d_37/kernel", "shape": [1, 1, 672, 160], "dtype": "float32"}, {"name": "conv2d_37/bias", "shape": [160], "dtype": "float32"}, {"name": "conv2d_38/kernel", "shape": [1, 1, 160, 960], "dtype": "float32"}, {"name": "conv2d_38/bias", "shape": [960], "dtype": "float32"}, {"name": "conv2d_39/kernel", "shape": [1, 1, 960, 240], "dtype": "float32"}, {"name": "conv2d_39/bias", "shape": [240], "dtype": "float32"}, {"name": "conv2d_4/kernel", "shape": [1, 1, 24, 72], "dtype": "float32"}, {"name": "conv2d_4/bias", "shape": [72], "dtype": "float32"}, {"name": "conv2d_40/kernel", "shape": [1, 1, 240, 960], "dtype": "float32"}, {"name": "conv2d_40/bias", "shape": [960], "dtype": "float32"}, {"name": "conv2d_41/kernel", "shape": [1, 1, 960, 160], "dtype": "float32"}, {"name": "conv2d_41/bias", "shape": [160], "dtype": "float32"}, {"name": "conv2d_42/kernel", "shape": [1, 1, 160, 960], "dtype": "float32"}, {"name": "conv2d_42/bias", "shape": [960], "dtype": "float32"}, {"name": "conv2d_43/kernel", "shape": [1, 1, 960, 240], "dtype": "float32"}, {"name": "conv2d_43/bias", "shape": [240], "dtype": "float32"}, {"name": "conv2d_44/kernel", "shape": [1, 1, 240, 960], "dtype": "float32"}, {"name": "conv2d_44/bias", "shape": [960], "dtype": "float32"}, {"name": "conv2d_45/kernel", "shape": [1, 1, 960, 160], "dtype": "float32"}, {"name": "conv2d_45/bias", "shape": [160], "dtype": "float32"}, {"name": "conv2d_46/kernel", "shape": [1, 1, 160, 960], "dtype": "float32"}, {"name": "conv2d_46/bias", "shape": [960], "dtype": "float32"}, {"name": "conv2d_5/kernel", "shape": [1, 1, 72, 24], "dtype": "float32"}, {"name": "conv2d_5/bias", "shape": [24], "dtype": "float32"}, {"name": "conv2d_6/kernel", "shape": [1, 1, 24, 72], "dtype": "float32"}, {"name": "conv2d_6/bias", "shape": [72], "dtype": "float32"}, {"name": "conv2d_7/kernel", "shape": [1, 1, 72, 24], "dtype": "float32"}, {"name": "conv2d_7/bias", "shape": [24], "dtype": "float32"}, {"name": "conv2d_8/kernel", "shape": [1, 1, 24, 72], "dtype": "float32"}, {"name": "conv2d_8/bias", "shape": [72], "dtype": "float32"}, {"name": "conv2d_9/kernel", "shape": [1, 1, 72, 40], "dtype": "float32"}, {"name": "conv2d_9/bias", "shape": [40], "dtype": "float32"}, {"name": "dense/kernel", "shape": [960, 1280], "dtype": "float32"}, {"name": "dense/bias", "shape": [1280], "dtype": "float32"}, {"name": "dense_1/kernel", "shape": [1280, 1081], "dtype": "float32"}, {"name": "dense_1/bias", "shape": [1081], "dtype": "float32"}, {"name": "depthwise_conv2d/depthwise_kernel", "shape": [3, 3, 16, 1], "dtype": "float32"}, {"name": "depthwise_conv2d/bias", "shape": [16], "dtype": "float32"}, {"name": "depthwise_conv2d_1/depthwise_kernel", "shape": [3, 3, 64, 1], "dtype": "float32"}, {"name": "depthwise_conv2d_1/bias", "shape": [64], "dtype": "float32"}, {"name": "depthwise_conv2d_10/depthwise_kernel", "shape": [3, 3, 480, 1], "dtype": "float32"}, {"name": "depthwise_conv2d_10/bias", "shape": [480], "dtype": "float32"}, {"name": "depthwise_conv2d_11/depthwise_kernel", "shape": [3, 3, 672, 1], "dtype": "float32"}, {"name": "depthwise_conv2d_11/bias", "shape": [672], "dtype": "float32"}, {"name": "depthwise_conv2d_12/depthwise_kernel", "shape": [5, 5, 672, 1], "dtype": "float32"}, {"name": "depthwise_conv2d_12/bias", "shape": [672], "dtype": "float32"}, {"name": "depthwise_conv2d_13/depthwise_kernel", "shape": [5, 5, 960, 1], "dtype": "float32"}, {"name": "depthwise_conv2d_13/bias", "shape": [960], "dtype": "float32"}, {"name": "depthwise_conv2d_14/depthwise_kernel", "shape": [5, 5, 960, 1], "dtype": "float32"}, {"name": "depthwise_conv2d_14/bias", "shape": [960], "dtype": "float32"}, {"name": "depthwise_conv2d_2/depthwise_kernel", "shape": [3, 3, 72, 1], "dtype": "float32"}, {"name": "depthwise_conv2d_2/bias", "shape": [72], "dtype": "float32"}, {"name": "depthwise_conv2d_3/depthwise_kernel", "shape": [5, 5, 72, 1], "dtype": "float32"}, {"name": "depthwise_conv2d_3/bias", "shape": [72], "dtype": "float32"}, {"name": "depthwise_conv2d_4/depthwise_kernel", "shape": [5, 5, 120, 1], "dtype": "float32"}, {"name": "depthwise_conv2d_4/bias", "shape": [120], "dtype": "float32"}, {"name": "depthwise_conv2d_5/depthwise_kernel", "shape": [5, 5, 120, 1], "dtype": "float32"}, {"name": "depthwise_conv2d_5/bias", "shape": [120], "dtype": "float32"}, {"name": "depthwise_conv2d_6/depthwise_kernel", "shape": [3, 3, 240, 1], "dtype": "float32"}, {"name": "depthwise_conv2d_6/bias", "shape": [240], "dtype": "float32"}, {"name": "depthwise_conv2d_7/depthwise_kernel", "shape": [3, 3, 200, 1], "dtype": "float32"}, {"name": "depthwise_conv2d_7/bias", "shape": [200], "dtype": "float32"}, {"name": "depthwise_conv2d_8/depthwise_kernel", "shape": [3, 3, 184, 1], "dtype": "float32"}, {"name": "depthwise_conv2d_8/bias", "shape": [184], "dtype": "float32"}, {"name": "depthwise_conv2d_9/depthwise_kernel", "shape": [3, 3, 184, 1], "dtype": "float32"}, {"name": "depthwise_conv2d_9/bias", "shape": [184], "dtype": "float32"}]}]}